{
  "layers" : [
    {
      "axis_seq" : 4,
      "name" : "transpose_0",
      "axis_n" : 3,
      "axis_h" : 2,
      "type" : "transpose",
      "attributes" : {
        "basic_block_head" : 1
      },
      "bottom" : "image",
      "axis_w" : 1,
      "axis_k" : 0,
      "debug_info" : "transpose_0",
      "weights" : {

      },
      "top" : "transpose_0"
    },
    {
      "pad_r" : 1,
      "fused_relu" : 1,
      "fused_tanh" : 0,
      "debug_info" : "input.7",
      "pad_fill_mode" : 0,
      "pad_b" : 1,
      "pad_l" : 1,
      "top" : "x.1",
      "blob_weights" : 3,
      "K" : 3,
      "blob_biases" : 1,
      "stride_x" : 2,
      "name" : "input.7",
      "has_batch_norm" : 0,
      "type" : "convolution",
      "n_groups" : 1,
      "pad_t" : 1,
      "stride_y" : 2,
      "has_biases" : 1,
      "C" : 32,
      "bottom" : "transpose_0",
      "weights" : {

      },
      "Nx" : 3,
      "pad_mode" : 0,
      "pad_value" : 0,
      "Ny" : 3,
      "n_parallel" : 1
    },
    {
      "begin_104" : 0,
      "begin_63" : 0,
      "begin_59" : 0,
      "begin_64" : 0,
      "begin_105" : 0,
      "begin_65" : 0,
      "begin_0" : 0,
      "begin_70" : 0,
      "begin_66" : 0,
      "begin_106" : 0,
      "begin_110" : 0,
      "begin_2" : 0,
      "begin_71" : 0,
      "begin_67" : 0,
      "begin_68" : 0,
      "begin_107" : 0,
      "begin_111" : 0,
      "begin_4" : 0,
      "begin_72" : 0,
      "begin_73" : 0,
      "begin_69" : 0,
      "begin_6" : 0,
      "begin_74" : 0,
      "begin_108" : 0,
      "type" : "split_nd",
      "begin_8" : 0,
      "begin_112" : 0,
      "begin_75" : 0,
      "begin_10" : 0,
      "begin_80" : 0,
      "begin_76" : 0,
      "begin_109" : 0,
      "begin_113" : 0,
      "begin_11" : 0,
      "nd_axis" : 1,
      "begin_81" : 0,
      "begin_77" : 0,
      "begin_114" : 0,
      "begin_12" : 0,
      "begin_78" : 0,
      "begin_82" : 0,
      "begin_13" : 0,
      "begin_83" : 0,
      "begin_79" : 0,
      "begin_115" : 0,
      "begin_14" : 0,
      "begin_84" : 0,
      "begin_15" : 0,
      "begin_85" : 0,
      "begin_116" : 0,
      "begin_120" : 0,
      "begin_20" : 0,
      "begin_86" : 0,
      "begin_16" : 0,
      "begin_90" : 0,
      "begin_21" : 0,
      "begin_91" : 0,
      "begin_87" : 0,
      "begin_17" : 0,
      "begin_117" : 0,
      "begin_121" : 0,
      "begin_18" : 0,
      "begin_92" : 0,
      "begin_88" : 0,
      "begin_22" : 0,
      "begin_23" : 0,
      "begin_89" : 0,
      "begin_19" : 0,
      "begin_93" : 0,
      "begin_118" : 0,
      "begin_122" : 0,
      "begin_24" : 0,
      "begin_94" : 0,
      "begin_25" : 0,
      "begin_95" : 0,
      "begin_119" : 0,
      "begin_123" : 0,
      "begin_30" : 0,
      "begin_26" : 0,
      "begin_96" : 0,
      "begin_124" : 0,
      "begin_31" : 0,
      "begin_97" : 0,
      "begin_27" : 0,
      "begin_28" : 0,
      "begin_98" : 0,
      "begin_32" : 0,
      "begin_125" : 0,
      "begin_33" : 0,
      "begin_29" : 0,
      "begin_99" : 0,
      "begin_1" : 0,
      "weights" : {

      },
      "begin_34" : 0,
      "bottom" : "x.1",
      "begin_3" : 0,
      "begin_126" : 0,
      "begin_35" : 0,
      "begin_5" : 0,
      "begin_36" : 0,
      "begin_40" : 0,
      "begin_127" : 0,
      "name" : "65",
      "begin_41" : 0,
      "begin_37" : 0,
      "begin_7" : 0,
      "begin_42" : 0,
      "begin_38" : 0,
      "begin_9" : 0,
      "begin_39" : 0,
      "begin_43" : 0,
      "begin_44" : 0,
      "begin_45" : 0,
      "begin_50" : 0,
      "begin_46" : 0,
      "begin_51" : 0,
      "begin_47" : 0,
      "begin_100" : 0,
      "begin_52" : 0,
      "debug_info" : "65",
      "begin_48" : 0,
      "top" : "65_0,65_1",
      "begin_101" : 0,
      "begin_53" : 0,
      "begin_49" : 0,
      "begin_54" : 0,
      "begin_55" : 0,
      "begin_102" : 0,
      "begin_60" : 0,
      "begin_56" : 0,
      "begin_103" : 0,
      "begin_57" : 0,
      "begin_61" : 0,
      "begin_62" : 0,
      "begin_58" : 0
    },
    {
      "pad_r" : 0,
      "fused_relu" : 1,
      "fused_tanh" : 0,
      "debug_info" : "input.13",
      "pad_fill_mode" : 0,
      "pad_b" : 0,
      "pad_l" : 0,
      "top" : "input.15",
      "blob_weights" : 7,
      "K" : 16,
      "blob_biases" : 5,
      "name" : "input.13",
      "has_batch_norm" : 0,
      "type" : "convolution",
      "n_groups" : 1,
      "pad_t" : 0,
      "has_biases" : 1,
      "C" : 32,
      "bottom" : "65_1",
      "weights" : {

      },
      "Nx" : 1,
      "pad_mode" : 0,
      "pad_value" : 0,
      "Ny" : 1,
      "n_parallel" : 1
    },
    {
      "pad_r" : 1,
      "fused_relu" : 0,
      "fused_tanh" : 0,
      "debug_info" : "input.19",
      "pad_fill_mode" : 0,
      "pad_b" : 1,
      "pad_l" : 1,
      "top" : "input.19",
      "blob_weights" : 11,
      "K" : 32,
      "blob_biases" : 9,
      "stride_x" : 2,
      "name" : "input.19",
      "has_batch_norm" : 0,
      "type" : "convolution",
      "n_groups" : 32,
      "pad_t" : 1,
      "stride_y" : 2,
      "has_biases" : 1,
      "C" : 32,
      "bottom" : "input.15",
      "weights" : {

      },
      "Nx" : 3,
      "pad_mode" : 0,
      "pad_value" : 0,
      "Ny" : 3,
      "n_parallel" : 1
    },
    {
      "pad_r" : 0,
      "fused_relu" : 1,
      "fused_tanh" : 0,
      "debug_info" : "input.23",
      "pad_fill_mode" : 0,
      "pad_b" : 0,
      "pad_l" : 0,
      "top" : "x2",
      "blob_weights" : 15,
      "K" : 32,
      "blob_biases" : 13,
      "name" : "input.23",
      "has_batch_norm" : 0,
      "type" : "convolution",
      "n_groups" : 1,
      "pad_t" : 0,
      "has_biases" : 1,
      "C" : 16,
      "bottom" : "input.19",
      "weights" : {

      },
      "Nx" : 1,
      "pad_mode" : 0,
      "pad_value" : 0,
      "Ny" : 1,
      "n_parallel" : 1
    },
    {
      "pad_r" : 1,
      "fused_relu" : 0,
      "fused_tanh" : 0,
      "debug_info" : "input.29",
      "pad_fill_mode" : 0,
      "pad_b" : 1,
      "pad_l" : 1,
      "top" : "input.29",
      "blob_weights" : 19,
      "K" : 16,
      "blob_biases" : 17,
      "stride_x" : 2,
      "name" : "input.29",
      "has_batch_norm" : 0,
      "type" : "convolution",
      "n_groups" : 16,
      "pad_t" : 1,
      "stride_y" : 2,
      "has_biases" : 1,
      "C" : 16,
      "bottom" : "65_0",
      "weights" : {

      },
      "Nx" : 3,
      "pad_mode" : 0,
      "pad_value" : 0,
      "Ny" : 3,
      "n_parallel" : 1
    },
    {
      "pad_r" : 0,
      "fused_relu" : 1,
      "fused_tanh" : 0,
      "debug_info" : "input.33",
      "pad_fill_mode" : 0,
      "pad_b" : 0,
      "pad_l" : 0,
      "top" : "136",
      "blob_weights" : 23,
      "K" : 16,
      "blob_biases" : 21,
      "name" : "input.33",
      "has_batch_norm" : 0,
      "type" : "convolution",
      "n_groups" : 1,
      "pad_t" : 0,
      "has_biases" : 1,
      "C" : 16,
      "bottom" : "input.29",
      "weights" : {

      },
      "Nx" : 1,
      "pad_mode" : 0,
      "pad_value" : 0,
      "Ny" : 1,
      "n_parallel" : 1
    },
    {
      "bottom" : "136,x2",
      "weights" : {

      },
      "interleave" : true,
      "nd_mode" : true,
      "axis" : 1,
      "debug_info" : "input.35",
      "top" : "input.35",
      "type" : "general_concat",
      "name" : "input.35"
    },
    {
      "pad_r" : 1,
      "fused_relu" : 0,
      "fused_tanh" : 0,
      "debug_info" : "input.39",
      "pad_fill_mode" : 0,
      "pad_b" : 1,
      "pad_l" : 1,
      "top" : "input.39",
      "blob_weights" : 27,
      "K" : 32,
      "blob_biases" : 25,
      "name" : "input.39",
      "has_batch_norm" : 0,
      "type" : "convolution",
      "n_groups" : 32,
      "pad_t" : 1,
      "has_biases" : 1,
      "C" : 32,
      "bottom" : "input.35",
      "weights" : {

      },
      "Nx" : 3,
      "pad_mode" : 0,
      "pad_value" : 0,
      "Ny" : 3,
      "n_parallel" : 1
    },
    {
      "pad_r" : 0,
      "fused_relu" : 1,
      "fused_tanh" : 0,
      "debug_info" : "input.43",
      "pad_fill_mode" : 0,
      "pad_b" : 0,
      "pad_l" : 0,
      "top" : "s.1",
      "blob_weights" : 31,
      "K" : 32,
      "blob_biases" : 29,
      "name" : "input.43",
      "has_batch_norm" : 0,
      "type" : "convolution",
      "n_groups" : 1,
      "pad_t" : 0,
      "has_biases" : 1,
      "C" : 40,
      "bottom" : "input.39",
      "weights" : {

      },
      "Nx" : 1,
      "pad_mode" : 0,
      "pad_value" : 0,
      "Ny" : 1,
      "n_parallel" : 1
    },
    {
      "pad_r" : 1,
      "fused_relu" : 0,
      "fused_tanh" : 0,
      "debug_info" : "input.47",
      "pad_fill_mode" : 0,
      "pad_b" : 1,
      "pad_l" : 1,
      "top" : "input.47",
      "blob_weights" : 35,
      "K" : 32,
      "blob_biases" : 33,
      "stride_x" : 2,
      "name" : "input.47",
      "has_batch_norm" : 0,
      "type" : "convolution",
      "n_groups" : 32,
      "pad_t" : 1,
      "stride_y" : 2,
      "has_biases" : 1,
      "C" : 32,
      "bottom" : "input.35",
      "weights" : {

      },
      "Nx" : 3,
      "pad_mode" : 0,
      "pad_value" : 0,
      "Ny" : 3,
      "n_parallel" : 1
    },
    {
      "pad_r" : 0,
      "fused_relu" : 1,
      "fused_tanh" : 0,
      "debug_info" : "input.51",
      "pad_fill_mode" : 0,
      "pad_b" : 0,
      "pad_l" : 0,
      "top" : "s.3",
      "blob_weights" : 39,
      "K" : 32,
      "blob_biases" : 37,
      "name" : "input.51",
      "has_batch_norm" : 0,
      "type" : "convolution",
      "n_groups" : 1,
      "pad_t" : 0,
      "has_biases" : 1,
      "C" : 80,
      "bottom" : "input.47",
      "weights" : {

      },
      "Nx" : 1,
      "pad_mode" : 0,
      "pad_value" : 0,
      "Ny" : 1,
      "n_parallel" : 1
    },
    {
      "begin_104" : 0,
      "begin_63" : 0,
      "begin_59" : 0,
      "begin_64" : 0,
      "begin_105" : 0,
      "begin_65" : 0,
      "begin_0" : 0,
      "begin_70" : 0,
      "begin_66" : 0,
      "begin_106" : 0,
      "begin_110" : 0,
      "begin_2" : 0,
      "begin_71" : 0,
      "begin_67" : 0,
      "begin_68" : 0,
      "begin_107" : 0,
      "begin_111" : 0,
      "begin_4" : 0,
      "begin_72" : 0,
      "begin_73" : 0,
      "begin_69" : 0,
      "begin_6" : 0,
      "begin_74" : 0,
      "begin_108" : 0,
      "type" : "split_nd",
      "begin_8" : 0,
      "begin_112" : 0,
      "begin_75" : 0,
      "begin_10" : 0,
      "begin_80" : 0,
      "begin_76" : 0,
      "begin_109" : 0,
      "begin_113" : 0,
      "begin_11" : 0,
      "nd_axis" : 1,
      "begin_81" : 0,
      "begin_77" : 0,
      "begin_114" : 0,
      "begin_12" : 0,
      "begin_78" : 0,
      "begin_82" : 0,
      "begin_13" : 0,
      "begin_83" : 0,
      "begin_79" : 0,
      "begin_115" : 0,
      "begin_14" : 0,
      "begin_84" : 0,
      "begin_15" : 0,
      "begin_85" : 0,
      "begin_116" : 0,
      "begin_120" : 0,
      "begin_20" : 0,
      "begin_86" : 0,
      "begin_16" : 0,
      "begin_90" : 0,
      "begin_21" : 0,
      "begin_91" : 0,
      "begin_87" : 0,
      "begin_17" : 0,
      "begin_117" : 0,
      "begin_121" : 0,
      "begin_18" : 0,
      "begin_92" : 0,
      "begin_88" : 0,
      "begin_22" : 0,
      "begin_23" : 0,
      "begin_89" : 0,
      "begin_19" : 0,
      "begin_93" : 0,
      "begin_118" : 0,
      "begin_122" : 0,
      "begin_24" : 0,
      "begin_94" : 0,
      "begin_25" : 0,
      "begin_95" : 0,
      "begin_119" : 0,
      "begin_123" : 0,
      "begin_30" : 0,
      "begin_26" : 0,
      "begin_96" : 0,
      "begin_124" : 0,
      "begin_31" : 0,
      "begin_97" : 0,
      "begin_27" : 0,
      "begin_28" : 0,
      "begin_98" : 0,
      "begin_32" : 0,
      "begin_125" : 0,
      "begin_33" : 0,
      "begin_29" : 0,
      "begin_99" : 0,
      "begin_1" : 0,
      "weights" : {

      },
      "begin_34" : 0,
      "bottom" : "s.1",
      "begin_3" : 0,
      "begin_126" : 0,
      "begin_35" : 0,
      "begin_5" : 0,
      "begin_36" : 0,
      "begin_40" : 0,
      "begin_127" : 0,
      "name" : "228",
      "begin_41" : 0,
      "begin_37" : 0,
      "begin_7" : 0,
      "begin_42" : 0,
      "begin_38" : 0,
      "begin_9" : 0,
      "begin_39" : 0,
      "begin_43" : 0,
      "begin_44" : 0,
      "begin_45" : 0,
      "begin_50" : 0,
      "begin_46" : 0,
      "begin_51" : 0,
      "begin_47" : 0,
      "begin_100" : 0,
      "begin_52" : 0,
      "debug_info" : "228",
      "begin_48" : 0,
      "top" : "228_0,228_1",
      "begin_101" : 0,
      "begin_53" : 0,
      "begin_49" : 0,
      "begin_54" : 0,
      "begin_55" : 0,
      "begin_102" : 0,
      "begin_60" : 0,
      "begin_56" : 0,
      "begin_103" : 0,
      "begin_57" : 0,
      "begin_61" : 0,
      "begin_62" : 0,
      "begin_58" : 0
    },
    {
      "begin_104" : 0,
      "begin_63" : 0,
      "begin_59" : 0,
      "begin_64" : 0,
      "begin_105" : 0,
      "begin_65" : 0,
      "begin_0" : 0,
      "begin_70" : 0,
      "begin_66" : 0,
      "begin_106" : 0,
      "begin_110" : 0,
      "begin_2" : 0,
      "begin_71" : 0,
      "begin_67" : 0,
      "begin_68" : 0,
      "begin_107" : 0,
      "begin_111" : 0,
      "begin_4" : 0,
      "begin_72" : 0,
      "begin_73" : 0,
      "begin_69" : 0,
      "begin_6" : 0,
      "begin_74" : 0,
      "begin_108" : 0,
      "type" : "split_nd",
      "begin_8" : 0,
      "begin_112" : 0,
      "begin_75" : 0,
      "begin_10" : 0,
      "begin_80" : 0,
      "begin_76" : 0,
      "begin_109" : 0,
      "begin_113" : 0,
      "begin_11" : 0,
      "nd_axis" : 1,
      "begin_81" : 0,
      "begin_77" : 0,
      "begin_114" : 0,
      "begin_12" : 0,
      "begin_78" : 0,
      "begin_82" : 0,
      "begin_13" : 0,
      "begin_83" : 0,
      "begin_79" : 0,
      "begin_115" : 0,
      "begin_14" : 0,
      "begin_84" : 0,
      "begin_15" : 0,
      "begin_85" : 0,
      "begin_116" : 0,
      "begin_120" : 0,
      "begin_20" : 0,
      "begin_86" : 0,
      "begin_16" : 0,
      "begin_90" : 0,
      "begin_21" : 0,
      "begin_91" : 0,
      "begin_87" : 0,
      "begin_17" : 0,
      "begin_117" : 0,
      "begin_121" : 0,
      "begin_18" : 0,
      "begin_92" : 0,
      "begin_88" : 0,
      "begin_22" : 0,
      "begin_23" : 0,
      "begin_89" : 0,
      "begin_19" : 0,
      "begin_93" : 0,
      "begin_118" : 0,
      "begin_122" : 0,
      "begin_24" : 0,
      "begin_94" : 0,
      "begin_25" : 0,
      "begin_95" : 0,
      "begin_119" : 0,
      "begin_123" : 0,
      "begin_30" : 0,
      "begin_26" : 0,
      "begin_96" : 0,
      "begin_124" : 0,
      "begin_31" : 0,
      "begin_97" : 0,
      "begin_27" : 0,
      "begin_28" : 0,
      "begin_98" : 0,
      "begin_32" : 0,
      "begin_125" : 0,
      "begin_33" : 0,
      "begin_29" : 0,
      "begin_99" : 0,
      "begin_1" : 0,
      "weights" : {

      },
      "begin_34" : 0,
      "bottom" : "s.3",
      "begin_3" : 0,
      "begin_126" : 0,
      "begin_35" : 0,
      "begin_5" : 0,
      "begin_36" : 0,
      "begin_40" : 0,
      "begin_127" : 0,
      "name" : "230",
      "begin_41" : 0,
      "begin_37" : 0,
      "begin_7" : 0,
      "begin_42" : 0,
      "begin_38" : 0,
      "begin_9" : 0,
      "begin_39" : 0,
      "begin_43" : 0,
      "begin_44" : 0,
      "begin_45" : 0,
      "begin_50" : 0,
      "begin_46" : 0,
      "begin_51" : 0,
      "begin_47" : 0,
      "begin_100" : 0,
      "begin_52" : 0,
      "debug_info" : "230",
      "begin_48" : 0,
      "top" : "230_0,230_1",
      "begin_101" : 0,
      "begin_53" : 0,
      "begin_49" : 0,
      "begin_54" : 0,
      "begin_55" : 0,
      "begin_102" : 0,
      "begin_60" : 0,
      "begin_56" : 0,
      "begin_103" : 0,
      "begin_57" : 0,
      "begin_61" : 0,
      "begin_62" : 0,
      "begin_58" : 0
    },
    {
      "pad_r" : 0,
      "debug_info" : "237",
      "pad_fill_mode" : 0,
      "pad_b" : 0,
      "pad_l" : 0,
      "size_x" : 2,
      "top" : "237",
      "top_shape_style" : 0,
      "stride_x" : 2,
      "avg_or_max" : 0,
      "average_count_exclude_padding" : 0,
      "type" : "pool",
      "name" : "237",
      "pad_t" : 0,
      "stride_y" : 2,
      "bottom" : "228_1",
      "weights" : {

      },
      "pad_mode" : 2,
      "size_y" : 2,
      "pad_value" : 0
    },
    {
      "weights" : {

      },
      "debug_info" : "input.55",
      "top" : "input.55",
      "type" : "concat",
      "name" : "input.55",
      "bottom" : "237,230_1"
    },
    {
      "pad_r" : 0,
      "fused_relu" : 1,
      "fused_tanh" : 0,
      "debug_info" : "input.59",
      "pad_fill_mode" : 0,
      "pad_b" : 0,
      "pad_l" : 0,
      "top" : "input.61",
      "blob_weights" : 43,
      "K" : 60,
      "blob_biases" : 41,
      "name" : "input.59",
      "has_batch_norm" : 0,
      "type" : "convolution",
      "n_groups" : 1,
      "pad_t" : 0,
      "has_biases" : 1,
      "C" : 7,
      "bottom" : "input.55",
      "weights" : {

      },
      "Nx" : 1,
      "pad_mode" : 0,
      "pad_value" : 0,
      "Ny" : 1,
      "n_parallel" : 1
    },
    {
      "pad_r" : 0,
      "fused_relu" : 0,
      "fused_tanh" : 0,
      "debug_info" : "input.65",
      "pad_fill_mode" : 0,
      "pad_b" : 0,
      "pad_l" : 0,
      "top" : "input.65",
      "blob_weights" : 47,
      "K" : 7,
      "blob_biases" : 45,
      "name" : "input.65",
      "has_batch_norm" : 0,
      "type" : "convolution",
      "n_groups" : 1,
      "pad_t" : 0,
      "has_biases" : 1,
      "C" : 60,
      "bottom" : "input.61",
      "weights" : {

      },
      "Nx" : 1,
      "pad_mode" : 0,
      "pad_value" : 0,
      "Ny" : 1,
      "n_parallel" : 1
    },
    {
      "bottom" : "input.65",
      "weights" : {

      },
      "mode" : 3,
      "debug_info" : "267",
      "top" : "267",
      "type" : "activation",
      "name" : "267"
    },
    {
      "begin_104" : 0,
      "begin_63" : 0,
      "begin_59" : 0,
      "begin_64" : 0,
      "begin_105" : 0,
      "begin_65" : 0,
      "begin_0" : 20,
      "begin_70" : 0,
      "begin_66" : 0,
      "begin_106" : 0,
      "begin_110" : 0,
      "begin_2" : 0,
      "begin_71" : 0,
      "begin_67" : 0,
      "begin_68" : 0,
      "begin_107" : 0,
      "begin_111" : 0,
      "begin_4" : 0,
      "begin_72" : 0,
      "begin_73" : 0,
      "begin_69" : 0,
      "begin_6" : 0,
      "begin_74" : 0,
      "begin_108" : 0,
      "type" : "split_nd",
      "begin_8" : 0,
      "begin_112" : 0,
      "begin_75" : 0,
      "begin_10" : 0,
      "begin_80" : 0,
      "begin_76" : 0,
      "begin_109" : 0,
      "begin_113" : 0,
      "begin_11" : 0,
      "nd_axis" : 1,
      "begin_81" : 0,
      "begin_77" : 0,
      "begin_114" : 0,
      "begin_12" : 0,
      "begin_78" : 0,
      "begin_82" : 0,
      "begin_13" : 0,
      "begin_83" : 0,
      "begin_79" : 0,
      "begin_115" : 0,
      "begin_14" : 0,
      "begin_84" : 0,
      "begin_15" : 0,
      "begin_85" : 0,
      "begin_116" : 0,
      "begin_120" : 0,
      "begin_20" : 0,
      "begin_86" : 0,
      "begin_16" : 0,
      "begin_90" : 0,
      "begin_21" : 0,
      "begin_91" : 0,
      "begin_87" : 0,
      "begin_17" : 0,
      "begin_117" : 0,
      "begin_121" : 0,
      "begin_18" : 0,
      "begin_92" : 0,
      "begin_88" : 0,
      "begin_22" : 0,
      "begin_23" : 0,
      "begin_89" : 0,
      "begin_19" : 0,
      "begin_93" : 0,
      "begin_118" : 0,
      "begin_122" : 0,
      "begin_24" : 0,
      "begin_94" : 0,
      "begin_25" : 0,
      "begin_95" : 0,
      "begin_119" : 0,
      "begin_123" : 0,
      "begin_30" : 0,
      "begin_26" : 0,
      "begin_96" : 0,
      "begin_124" : 0,
      "begin_31" : 0,
      "begin_97" : 0,
      "begin_27" : 0,
      "begin_28" : 0,
      "begin_98" : 0,
      "begin_32" : 0,
      "begin_125" : 0,
      "begin_33" : 0,
      "begin_29" : 0,
      "begin_99" : 0,
      "begin_1" : 40,
      "weights" : {

      },
      "begin_34" : 0,
      "bottom" : "267",
      "begin_3" : 0,
      "begin_126" : 0,
      "begin_35" : 0,
      "begin_5" : 0,
      "begin_36" : 0,
      "begin_40" : 0,
      "begin_127" : 0,
      "name" : "269",
      "begin_41" : 0,
      "begin_37" : 0,
      "begin_7" : 0,
      "begin_42" : 0,
      "begin_38" : 0,
      "begin_9" : 0,
      "begin_39" : 0,
      "begin_43" : 0,
      "begin_44" : 0,
      "begin_45" : 0,
      "begin_50" : 0,
      "begin_46" : 0,
      "begin_51" : 0,
      "begin_47" : 0,
      "begin_100" : 0,
      "begin_52" : 0,
      "debug_info" : "269",
      "begin_48" : 0,
      "top" : "269_0,269_1",
      "begin_101" : 0,
      "begin_53" : 0,
      "begin_49" : 0,
      "begin_54" : 0,
      "begin_55" : 0,
      "begin_102" : 0,
      "begin_60" : 0,
      "begin_56" : 0,
      "begin_103" : 0,
      "begin_57" : 0,
      "begin_61" : 0,
      "begin_62" : 0,
      "begin_58" : 0
    },
    {
      "top" : "275",
      "use_fractional_scale_factors" : false,
      "weights" : {

      },
      "fractional_scaling_factor_y" : 1,
      "type" : "upsample",
      "scaling_factor_x" : 2,
      "mode" : 0,
      "align_corners" : 0,
      "bottom" : "269_0",
      "debug_info" : "275",
      "fractional_scaling_factor_x" : 1,
      "is_legacy_mode" : 1,
      "name" : "275",
      "scaling_factor_y" : 2
    },
    {
      "bottom" : "228_1,275",
      "alpha" : 1,
      "operation" : 1,
      "weights" : {

      },
      "fused_relu" : 0,
      "debug_info" : "input.71",
      "top" : "input.71",
      "type" : "elementwise",
      "name" : "input.71",
      "beta" : 0
    },
    {
      "bottom" : "230_1,269_1",
      "alpha" : 1,
      "operation" : 1,
      "weights" : {

      },
      "fused_relu" : 0,
      "debug_info" : "input.75",
      "top" : "input.75",
      "type" : "elementwise",
      "name" : "input.75",
      "beta" : 0
    },
    {
      "pad_r" : 1,
      "fused_relu" : 0,
      "fused_tanh" : 0,
      "debug_info" : "input.79",
      "pad_fill_mode" : 0,
      "pad_b" : 1,
      "pad_l" : 1,
      "top" : "input.79",
      "blob_weights" : 51,
      "K" : 20,
      "blob_biases" : 49,
      "name" : "input.79",
      "has_batch_norm" : 0,
      "type" : "convolution",
      "n_groups" : 20,
      "pad_t" : 1,
      "has_biases" : 1,
      "C" : 20,
      "bottom" : "input.71",
      "weights" : {

      },
      "Nx" : 3,
      "pad_mode" : 0,
      "pad_value" : 0,
      "Ny" : 3,
      "n_parallel" : 1
    },
    {
      "pad_r" : 1,
      "fused_relu" : 0,
      "fused_tanh" : 0,
      "debug_info" : "input.89",
      "pad_fill_mode" : 0,
      "pad_b" : 1,
      "pad_l" : 1,
      "top" : "input.89",
      "blob_weights" : 55,
      "K" : 40,
      "blob_biases" : 53,
      "name" : "input.89",
      "has_batch_norm" : 0,
      "type" : "convolution",
      "n_groups" : 40,
      "pad_t" : 1,
      "has_biases" : 1,
      "C" : 40,
      "bottom" : "input.75",
      "weights" : {

      },
      "Nx" : 3,
      "pad_mode" : 0,
      "pad_value" : 0,
      "Ny" : 3,
      "n_parallel" : 1
    },
    {
      "pad_r" : 0,
      "debug_info" : "input.81",
      "pad_fill_mode" : 0,
      "pad_b" : 0,
      "pad_l" : 0,
      "size_x" : 72,
      "is_global" : 1,
      "top" : "input.81",
      "top_shape_style" : 0,
      "stride_x" : 1,
      "avg_or_max" : 0,
      "average_count_exclude_padding" : 1,
      "type" : "pool",
      "name" : "input.81",
      "pad_t" : 0,
      "stride_y" : 1,
      "bottom" : "input.79",
      "weights" : {

      },
      "pad_mode" : 2,
      "size_y" : 96,
      "pad_value" : 0
    },
    {
      "pad_r" : 0,
      "fused_relu" : 1,
      "fused_tanh" : 0,
      "debug_info" : "input.83",
      "pad_fill_mode" : 0,
      "pad_b" : 0,
      "pad_l" : 0,
      "top" : "input.85",
      "blob_weights" : 59,
      "K" : 20,
      "blob_biases" : 57,
      "name" : "input.83",
      "has_batch_norm" : 0,
      "type" : "convolution",
      "n_groups" : 1,
      "pad_t" : 0,
      "has_biases" : 1,
      "C" : 5,
      "bottom" : "input.81",
      "weights" : {

      },
      "Nx" : 1,
      "pad_mode" : 0,
      "pad_value" : 0,
      "Ny" : 1,
      "n_parallel" : 1
    },
    {
      "pad_r" : 0,
      "fused_relu" : 0,
      "fused_tanh" : 0,
      "debug_info" : "input.87",
      "pad_fill_mode" : 0,
      "pad_b" : 0,
      "pad_l" : 0,
      "top" : "input.87",
      "blob_weights" : 63,
      "K" : 5,
      "blob_biases" : 61,
      "name" : "input.87",
      "has_batch_norm" : 0,
      "type" : "convolution",
      "n_groups" : 1,
      "pad_t" : 0,
      "has_biases" : 1,
      "C" : 20,
      "bottom" : "input.85",
      "weights" : {

      },
      "Nx" : 1,
      "pad_mode" : 0,
      "pad_value" : 0,
      "Ny" : 1,
      "n_parallel" : 1
    },
    {
      "bottom" : "input.87",
      "weights" : {

      },
      "mode" : 3,
      "debug_info" : "out.1",
      "top" : "out.1",
      "type" : "activation",
      "name" : "out.1"
    },
    {
      "bottom" : "input.79,out.1",
      "alpha" : 1,
      "operation" : 1,
      "weights" : {

      },
      "fused_relu" : 0,
      "debug_info" : "s2.1",
      "top" : "s2.1",
      "type" : "elementwise",
      "name" : "s2.1",
      "beta" : 0
    },
    {
      "pad_r" : 0,
      "debug_info" : "input.91",
      "pad_fill_mode" : 0,
      "pad_b" : 0,
      "pad_l" : 0,
      "size_x" : 36,
      "is_global" : 1,
      "top" : "input.91",
      "top_shape_style" : 0,
      "stride_x" : 1,
      "avg_or_max" : 0,
      "average_count_exclude_padding" : 1,
      "type" : "pool",
      "name" : "input.91",
      "pad_t" : 0,
      "stride_y" : 1,
      "bottom" : "input.89",
      "weights" : {

      },
      "pad_mode" : 2,
      "size_y" : 48,
      "pad_value" : 0
    },
    {
      "pad_r" : 0,
      "fused_relu" : 1,
      "fused_tanh" : 0,
      "debug_info" : "input.93",
      "pad_fill_mode" : 0,
      "pad_b" : 0,
      "pad_l" : 0,
      "top" : "input.95",
      "blob_weights" : 67,
      "K" : 40,
      "blob_biases" : 65,
      "name" : "input.93",
      "has_batch_norm" : 0,
      "type" : "convolution",
      "n_groups" : 1,
      "pad_t" : 0,
      "has_biases" : 1,
      "C" : 10,
      "bottom" : "input.91",
      "weights" : {

      },
      "Nx" : 1,
      "pad_mode" : 0,
      "pad_value" : 0,
      "Ny" : 1,
      "n_parallel" : 1
    },
    {
      "pad_r" : 0,
      "fused_relu" : 0,
      "fused_tanh" : 0,
      "debug_info" : "input.97",
      "pad_fill_mode" : 0,
      "pad_b" : 0,
      "pad_l" : 0,
      "top" : "input.97",
      "blob_weights" : 71,
      "K" : 10,
      "blob_biases" : 69,
      "name" : "input.97",
      "has_batch_norm" : 0,
      "type" : "convolution",
      "n_groups" : 1,
      "pad_t" : 0,
      "has_biases" : 1,
      "C" : 40,
      "bottom" : "input.95",
      "weights" : {

      },
      "Nx" : 1,
      "pad_mode" : 0,
      "pad_value" : 0,
      "Ny" : 1,
      "n_parallel" : 1
    },
    {
      "bottom" : "input.97",
      "weights" : {

      },
      "mode" : 3,
      "debug_info" : "out.3",
      "top" : "out.3",
      "type" : "activation",
      "name" : "out.3"
    },
    {
      "bottom" : "input.89,out.3",
      "alpha" : 1,
      "operation" : 1,
      "weights" : {

      },
      "fused_relu" : 0,
      "debug_info" : "s2.3",
      "top" : "s2.3",
      "type" : "elementwise",
      "name" : "s2.3",
      "beta" : 0
    },
    {
      "bottom" : "228_0,s2.1",
      "weights" : {

      },
      "interleave" : true,
      "nd_mode" : true,
      "axis" : 1,
      "debug_info" : "s.7",
      "top" : "s.7",
      "type" : "general_concat",
      "name" : "s.7"
    },
    {
      "bottom" : "230_0,s2.3",
      "weights" : {

      },
      "interleave" : true,
      "nd_mode" : true,
      "axis" : 1,
      "debug_info" : "s.9",
      "top" : "s.9",
      "type" : "general_concat",
      "name" : "s.9"
    },
    {
      "begin_104" : 0,
      "begin_63" : 0,
      "begin_59" : 0,
      "begin_64" : 0,
      "begin_105" : 0,
      "begin_65" : 0,
      "begin_0" : 0,
      "begin_70" : 0,
      "begin_66" : 0,
      "begin_106" : 0,
      "begin_110" : 0,
      "begin_2" : 0,
      "begin_71" : 0,
      "begin_67" : 0,
      "begin_68" : 0,
      "begin_107" : 0,
      "begin_111" : 0,
      "begin_4" : 0,
      "begin_72" : 0,
      "begin_73" : 0,
      "begin_69" : 0,
      "begin_6" : 0,
      "begin_74" : 0,
      "begin_108" : 0,
      "type" : "split_nd",
      "begin_8" : 0,
      "begin_112" : 0,
      "begin_75" : 0,
      "begin_10" : 0,
      "begin_80" : 0,
      "begin_76" : 0,
      "begin_109" : 0,
      "begin_113" : 0,
      "begin_11" : 0,
      "nd_axis" : 1,
      "begin_81" : 0,
      "begin_77" : 0,
      "begin_114" : 0,
      "begin_12" : 0,
      "begin_78" : 0,
      "begin_82" : 0,
      "begin_13" : 0,
      "begin_83" : 0,
      "begin_79" : 0,
      "begin_115" : 0,
      "begin_14" : 0,
      "begin_84" : 0,
      "begin_15" : 0,
      "begin_85" : 0,
      "begin_116" : 0,
      "begin_120" : 0,
      "begin_20" : 0,
      "begin_86" : 0,
      "begin_16" : 0,
      "begin_90" : 0,
      "begin_21" : 0,
      "begin_91" : 0,
      "begin_87" : 0,
      "begin_17" : 0,
      "begin_117" : 0,
      "begin_121" : 0,
      "begin_18" : 0,
      "begin_92" : 0,
      "begin_88" : 0,
      "begin_22" : 0,
      "begin_23" : 0,
      "begin_89" : 0,
      "begin_19" : 0,
      "begin_93" : 0,
      "begin_118" : 0,
      "begin_122" : 0,
      "begin_24" : 0,
      "begin_94" : 0,
      "begin_25" : 0,
      "begin_95" : 0,
      "begin_119" : 0,
      "begin_123" : 0,
      "begin_30" : 0,
      "begin_26" : 0,
      "begin_96" : 0,
      "begin_124" : 0,
      "begin_31" : 0,
      "begin_97" : 0,
      "begin_27" : 0,
      "begin_28" : 0,
      "begin_98" : 0,
      "begin_32" : 0,
      "begin_125" : 0,
      "begin_33" : 0,
      "begin_29" : 0,
      "begin_99" : 0,
      "begin_1" : 0,
      "weights" : {

      },
      "begin_34" : 0,
      "bottom" : "s.7",
      "begin_3" : 0,
      "begin_126" : 0,
      "begin_35" : 0,
      "begin_5" : 0,
      "begin_36" : 0,
      "begin_40" : 0,
      "begin_127" : 0,
      "name" : "399",
      "begin_41" : 0,
      "begin_37" : 0,
      "begin_7" : 0,
      "begin_42" : 0,
      "begin_38" : 0,
      "begin_9" : 0,
      "begin_39" : 0,
      "begin_43" : 0,
      "begin_44" : 0,
      "begin_45" : 0,
      "begin_50" : 0,
      "begin_46" : 0,
      "begin_51" : 0,
      "begin_47" : 0,
      "begin_100" : 0,
      "begin_52" : 0,
      "debug_info" : "399",
      "begin_48" : 0,
      "top" : "399_0,399_1",
      "begin_101" : 0,
      "begin_53" : 0,
      "begin_49" : 0,
      "begin_54" : 0,
      "begin_55" : 0,
      "begin_102" : 0,
      "begin_60" : 0,
      "begin_56" : 0,
      "begin_103" : 0,
      "begin_57" : 0,
      "begin_61" : 0,
      "begin_62" : 0,
      "begin_58" : 0
    },
    {
      "begin_104" : 0,
      "begin_63" : 0,
      "begin_59" : 0,
      "begin_64" : 0,
      "begin_105" : 0,
      "begin_65" : 0,
      "begin_0" : 0,
      "begin_70" : 0,
      "begin_66" : 0,
      "begin_106" : 0,
      "begin_110" : 0,
      "begin_2" : 0,
      "begin_71" : 0,
      "begin_67" : 0,
      "begin_68" : 0,
      "begin_107" : 0,
      "begin_111" : 0,
      "begin_4" : 0,
      "begin_72" : 0,
      "begin_73" : 0,
      "begin_69" : 0,
      "begin_6" : 0,
      "begin_74" : 0,
      "begin_108" : 0,
      "type" : "split_nd",
      "begin_8" : 0,
      "begin_112" : 0,
      "begin_75" : 0,
      "begin_10" : 0,
      "begin_80" : 0,
      "begin_76" : 0,
      "begin_109" : 0,
      "begin_113" : 0,
      "begin_11" : 0,
      "nd_axis" : 1,
      "begin_81" : 0,
      "begin_77" : 0,
      "begin_114" : 0,
      "begin_12" : 0,
      "begin_78" : 0,
      "begin_82" : 0,
      "begin_13" : 0,
      "begin_83" : 0,
      "begin_79" : 0,
      "begin_115" : 0,
      "begin_14" : 0,
      "begin_84" : 0,
      "begin_15" : 0,
      "begin_85" : 0,
      "begin_116" : 0,
      "begin_120" : 0,
      "begin_20" : 0,
      "begin_86" : 0,
      "begin_16" : 0,
      "begin_90" : 0,
      "begin_21" : 0,
      "begin_91" : 0,
      "begin_87" : 0,
      "begin_17" : 0,
      "begin_117" : 0,
      "begin_121" : 0,
      "begin_18" : 0,
      "begin_92" : 0,
      "begin_88" : 0,
      "begin_22" : 0,
      "begin_23" : 0,
      "begin_89" : 0,
      "begin_19" : 0,
      "begin_93" : 0,
      "begin_118" : 0,
      "begin_122" : 0,
      "begin_24" : 0,
      "begin_94" : 0,
      "begin_25" : 0,
      "begin_95" : 0,
      "begin_119" : 0,
      "begin_123" : 0,
      "begin_30" : 0,
      "begin_26" : 0,
      "begin_96" : 0,
      "begin_124" : 0,
      "begin_31" : 0,
      "begin_97" : 0,
      "begin_27" : 0,
      "begin_28" : 0,
      "begin_98" : 0,
      "begin_32" : 0,
      "begin_125" : 0,
      "begin_33" : 0,
      "begin_29" : 0,
      "begin_99" : 0,
      "begin_1" : 0,
      "weights" : {

      },
      "begin_34" : 0,
      "bottom" : "s.9",
      "begin_3" : 0,
      "begin_126" : 0,
      "begin_35" : 0,
      "begin_5" : 0,
      "begin_36" : 0,
      "begin_40" : 0,
      "begin_127" : 0,
      "name" : "401",
      "begin_41" : 0,
      "begin_37" : 0,
      "begin_7" : 0,
      "begin_42" : 0,
      "begin_38" : 0,
      "begin_9" : 0,
      "begin_39" : 0,
      "begin_43" : 0,
      "begin_44" : 0,
      "begin_45" : 0,
      "begin_50" : 0,
      "begin_46" : 0,
      "begin_51" : 0,
      "begin_47" : 0,
      "begin_100" : 0,
      "begin_52" : 0,
      "debug_info" : "401",
      "begin_48" : 0,
      "top" : "401_0,401_1",
      "begin_101" : 0,
      "begin_53" : 0,
      "begin_49" : 0,
      "begin_54" : 0,
      "begin_55" : 0,
      "begin_102" : 0,
      "begin_60" : 0,
      "begin_56" : 0,
      "begin_103" : 0,
      "begin_57" : 0,
      "begin_61" : 0,
      "begin_62" : 0,
      "begin_58" : 0
    },
    {
      "pad_r" : 0,
      "debug_info" : "408",
      "pad_fill_mode" : 0,
      "pad_b" : 0,
      "pad_l" : 0,
      "size_x" : 2,
      "top" : "408",
      "top_shape_style" : 0,
      "stride_x" : 2,
      "avg_or_max" : 0,
      "average_count_exclude_padding" : 0,
      "type" : "pool",
      "name" : "408",
      "pad_t" : 0,
      "stride_y" : 2,
      "bottom" : "399_1",
      "weights" : {

      },
      "pad_mode" : 2,
      "size_y" : 2,
      "pad_value" : 0
    },
    {
      "weights" : {

      },
      "debug_info" : "input.101",
      "top" : "input.101",
      "type" : "concat",
      "name" : "input.101",
      "bottom" : "408,401_1"
    },
    {
      "pad_r" : 0,
      "fused_relu" : 1,
      "fused_tanh" : 0,
      "debug_info" : "input.105",
      "pad_fill_mode" : 0,
      "pad_b" : 0,
      "pad_l" : 0,
      "top" : "input.107",
      "blob_weights" : 75,
      "K" : 60,
      "blob_biases" : 73,
      "name" : "input.105",
      "has_batch_norm" : 0,
      "type" : "convolution",
      "n_groups" : 1,
      "pad_t" : 0,
      "has_biases" : 1,
      "C" : 7,
      "bottom" : "input.101",
      "weights" : {

      },
      "Nx" : 1,
      "pad_mode" : 0,
      "pad_value" : 0,
      "Ny" : 1,
      "n_parallel" : 1
    },
    {
      "pad_r" : 0,
      "fused_relu" : 0,
      "fused_tanh" : 0,
      "debug_info" : "input.111",
      "pad_fill_mode" : 0,
      "pad_b" : 0,
      "pad_l" : 0,
      "top" : "input.111",
      "blob_weights" : 79,
      "K" : 7,
      "blob_biases" : 77,
      "name" : "input.111",
      "has_batch_norm" : 0,
      "type" : "convolution",
      "n_groups" : 1,
      "pad_t" : 0,
      "has_biases" : 1,
      "C" : 60,
      "bottom" : "input.107",
      "weights" : {

      },
      "Nx" : 1,
      "pad_mode" : 0,
      "pad_value" : 0,
      "Ny" : 1,
      "n_parallel" : 1
    },
    {
      "bottom" : "input.111",
      "weights" : {

      },
      "mode" : 3,
      "debug_info" : "438",
      "top" : "438",
      "type" : "activation",
      "name" : "438"
    },
    {
      "begin_104" : 0,
      "begin_63" : 0,
      "begin_59" : 0,
      "begin_64" : 0,
      "begin_105" : 0,
      "begin_65" : 0,
      "begin_0" : 20,
      "begin_70" : 0,
      "begin_66" : 0,
      "begin_106" : 0,
      "begin_110" : 0,
      "begin_2" : 0,
      "begin_71" : 0,
      "begin_67" : 0,
      "begin_68" : 0,
      "begin_107" : 0,
      "begin_111" : 0,
      "begin_4" : 0,
      "begin_72" : 0,
      "begin_73" : 0,
      "begin_69" : 0,
      "begin_6" : 0,
      "begin_74" : 0,
      "begin_108" : 0,
      "type" : "split_nd",
      "begin_8" : 0,
      "begin_112" : 0,
      "begin_75" : 0,
      "begin_10" : 0,
      "begin_80" : 0,
      "begin_76" : 0,
      "begin_109" : 0,
      "begin_113" : 0,
      "begin_11" : 0,
      "nd_axis" : 1,
      "begin_81" : 0,
      "begin_77" : 0,
      "begin_114" : 0,
      "begin_12" : 0,
      "begin_78" : 0,
      "begin_82" : 0,
      "begin_13" : 0,
      "begin_83" : 0,
      "begin_79" : 0,
      "begin_115" : 0,
      "begin_14" : 0,
      "begin_84" : 0,
      "begin_15" : 0,
      "begin_85" : 0,
      "begin_116" : 0,
      "begin_120" : 0,
      "begin_20" : 0,
      "begin_86" : 0,
      "begin_16" : 0,
      "begin_90" : 0,
      "begin_21" : 0,
      "begin_91" : 0,
      "begin_87" : 0,
      "begin_17" : 0,
      "begin_117" : 0,
      "begin_121" : 0,
      "begin_18" : 0,
      "begin_92" : 0,
      "begin_88" : 0,
      "begin_22" : 0,
      "begin_23" : 0,
      "begin_89" : 0,
      "begin_19" : 0,
      "begin_93" : 0,
      "begin_118" : 0,
      "begin_122" : 0,
      "begin_24" : 0,
      "begin_94" : 0,
      "begin_25" : 0,
      "begin_95" : 0,
      "begin_119" : 0,
      "begin_123" : 0,
      "begin_30" : 0,
      "begin_26" : 0,
      "begin_96" : 0,
      "begin_124" : 0,
      "begin_31" : 0,
      "begin_97" : 0,
      "begin_27" : 0,
      "begin_28" : 0,
      "begin_98" : 0,
      "begin_32" : 0,
      "begin_125" : 0,
      "begin_33" : 0,
      "begin_29" : 0,
      "begin_99" : 0,
      "begin_1" : 40,
      "weights" : {

      },
      "begin_34" : 0,
      "bottom" : "438",
      "begin_3" : 0,
      "begin_126" : 0,
      "begin_35" : 0,
      "begin_5" : 0,
      "begin_36" : 0,
      "begin_40" : 0,
      "begin_127" : 0,
      "name" : "440",
      "begin_41" : 0,
      "begin_37" : 0,
      "begin_7" : 0,
      "begin_42" : 0,
      "begin_38" : 0,
      "begin_9" : 0,
      "begin_39" : 0,
      "begin_43" : 0,
      "begin_44" : 0,
      "begin_45" : 0,
      "begin_50" : 0,
      "begin_46" : 0,
      "begin_51" : 0,
      "begin_47" : 0,
      "begin_100" : 0,
      "begin_52" : 0,
      "debug_info" : "440",
      "begin_48" : 0,
      "top" : "440_0,440_1",
      "begin_101" : 0,
      "begin_53" : 0,
      "begin_49" : 0,
      "begin_54" : 0,
      "begin_55" : 0,
      "begin_102" : 0,
      "begin_60" : 0,
      "begin_56" : 0,
      "begin_103" : 0,
      "begin_57" : 0,
      "begin_61" : 0,
      "begin_62" : 0,
      "begin_58" : 0
    },
    {
      "top" : "446",
      "use_fractional_scale_factors" : false,
      "weights" : {

      },
      "fractional_scaling_factor_y" : 1,
      "type" : "upsample",
      "scaling_factor_x" : 2,
      "mode" : 0,
      "align_corners" : 0,
      "bottom" : "440_0",
      "debug_info" : "446",
      "fractional_scaling_factor_x" : 1,
      "is_legacy_mode" : 1,
      "name" : "446",
      "scaling_factor_y" : 2
    },
    {
      "bottom" : "399_1,446",
      "alpha" : 1,
      "operation" : 1,
      "weights" : {

      },
      "fused_relu" : 0,
      "debug_info" : "input.117",
      "top" : "input.117",
      "type" : "elementwise",
      "name" : "input.117",
      "beta" : 0
    },
    {
      "bottom" : "401_1,440_1",
      "alpha" : 1,
      "operation" : 1,
      "weights" : {

      },
      "fused_relu" : 0,
      "debug_info" : "input.121",
      "top" : "input.121",
      "type" : "elementwise",
      "name" : "input.121",
      "beta" : 0
    },
    {
      "pad_r" : 1,
      "fused_relu" : 0,
      "fused_tanh" : 0,
      "debug_info" : "input.125",
      "pad_fill_mode" : 0,
      "pad_b" : 1,
      "pad_l" : 1,
      "top" : "input.125",
      "blob_weights" : 83,
      "K" : 20,
      "blob_biases" : 81,
      "name" : "input.125",
      "has_batch_norm" : 0,
      "type" : "convolution",
      "n_groups" : 20,
      "pad_t" : 1,
      "has_biases" : 1,
      "C" : 20,
      "bottom" : "input.117",
      "weights" : {

      },
      "Nx" : 3,
      "pad_mode" : 0,
      "pad_value" : 0,
      "Ny" : 3,
      "n_parallel" : 1
    },
    {
      "pad_r" : 1,
      "fused_relu" : 0,
      "fused_tanh" : 0,
      "debug_info" : "input.135",
      "pad_fill_mode" : 0,
      "pad_b" : 1,
      "pad_l" : 1,
      "top" : "input.135",
      "blob_weights" : 87,
      "K" : 40,
      "blob_biases" : 85,
      "name" : "input.135",
      "has_batch_norm" : 0,
      "type" : "convolution",
      "n_groups" : 40,
      "pad_t" : 1,
      "has_biases" : 1,
      "C" : 40,
      "bottom" : "input.121",
      "weights" : {

      },
      "Nx" : 3,
      "pad_mode" : 0,
      "pad_value" : 0,
      "Ny" : 3,
      "n_parallel" : 1
    },
    {
      "pad_r" : 0,
      "debug_info" : "input.127",
      "pad_fill_mode" : 0,
      "pad_b" : 0,
      "pad_l" : 0,
      "size_x" : 72,
      "is_global" : 1,
      "top" : "input.127",
      "top_shape_style" : 0,
      "stride_x" : 1,
      "avg_or_max" : 0,
      "average_count_exclude_padding" : 1,
      "type" : "pool",
      "name" : "input.127",
      "pad_t" : 0,
      "stride_y" : 1,
      "bottom" : "input.125",
      "weights" : {

      },
      "pad_mode" : 2,
      "size_y" : 96,
      "pad_value" : 0
    },
    {
      "pad_r" : 0,
      "fused_relu" : 1,
      "fused_tanh" : 0,
      "debug_info" : "input.129",
      "pad_fill_mode" : 0,
      "pad_b" : 0,
      "pad_l" : 0,
      "top" : "input.131",
      "blob_weights" : 91,
      "K" : 20,
      "blob_biases" : 89,
      "name" : "input.129",
      "has_batch_norm" : 0,
      "type" : "convolution",
      "n_groups" : 1,
      "pad_t" : 0,
      "has_biases" : 1,
      "C" : 5,
      "bottom" : "input.127",
      "weights" : {

      },
      "Nx" : 1,
      "pad_mode" : 0,
      "pad_value" : 0,
      "Ny" : 1,
      "n_parallel" : 1
    },
    {
      "pad_r" : 0,
      "fused_relu" : 0,
      "fused_tanh" : 0,
      "debug_info" : "input.133",
      "pad_fill_mode" : 0,
      "pad_b" : 0,
      "pad_l" : 0,
      "top" : "input.133",
      "blob_weights" : 95,
      "K" : 5,
      "blob_biases" : 93,
      "name" : "input.133",
      "has_batch_norm" : 0,
      "type" : "convolution",
      "n_groups" : 1,
      "pad_t" : 0,
      "has_biases" : 1,
      "C" : 20,
      "bottom" : "input.131",
      "weights" : {

      },
      "Nx" : 1,
      "pad_mode" : 0,
      "pad_value" : 0,
      "Ny" : 1,
      "n_parallel" : 1
    },
    {
      "bottom" : "input.133",
      "weights" : {

      },
      "mode" : 3,
      "debug_info" : "out.5",
      "top" : "out.5",
      "type" : "activation",
      "name" : "out.5"
    },
    {
      "bottom" : "input.125,out.5",
      "alpha" : 1,
      "operation" : 1,
      "weights" : {

      },
      "fused_relu" : 0,
      "debug_info" : "s2.5",
      "top" : "s2.5",
      "type" : "elementwise",
      "name" : "s2.5",
      "beta" : 0
    },
    {
      "pad_r" : 0,
      "debug_info" : "input.137",
      "pad_fill_mode" : 0,
      "pad_b" : 0,
      "pad_l" : 0,
      "size_x" : 36,
      "is_global" : 1,
      "top" : "input.137",
      "top_shape_style" : 0,
      "stride_x" : 1,
      "avg_or_max" : 0,
      "average_count_exclude_padding" : 1,
      "type" : "pool",
      "name" : "input.137",
      "pad_t" : 0,
      "stride_y" : 1,
      "bottom" : "input.135",
      "weights" : {

      },
      "pad_mode" : 2,
      "size_y" : 48,
      "pad_value" : 0
    },
    {
      "pad_r" : 0,
      "fused_relu" : 1,
      "fused_tanh" : 0,
      "debug_info" : "input.139",
      "pad_fill_mode" : 0,
      "pad_b" : 0,
      "pad_l" : 0,
      "top" : "input.141",
      "blob_weights" : 99,
      "K" : 40,
      "blob_biases" : 97,
      "name" : "input.139",
      "has_batch_norm" : 0,
      "type" : "convolution",
      "n_groups" : 1,
      "pad_t" : 0,
      "has_biases" : 1,
      "C" : 10,
      "bottom" : "input.137",
      "weights" : {

      },
      "Nx" : 1,
      "pad_mode" : 0,
      "pad_value" : 0,
      "Ny" : 1,
      "n_parallel" : 1
    },
    {
      "pad_r" : 0,
      "fused_relu" : 0,
      "fused_tanh" : 0,
      "debug_info" : "input.143",
      "pad_fill_mode" : 0,
      "pad_b" : 0,
      "pad_l" : 0,
      "top" : "input.143",
      "blob_weights" : 103,
      "K" : 10,
      "blob_biases" : 101,
      "name" : "input.143",
      "has_batch_norm" : 0,
      "type" : "convolution",
      "n_groups" : 1,
      "pad_t" : 0,
      "has_biases" : 1,
      "C" : 40,
      "bottom" : "input.141",
      "weights" : {

      },
      "Nx" : 1,
      "pad_mode" : 0,
      "pad_value" : 0,
      "Ny" : 1,
      "n_parallel" : 1
    },
    {
      "bottom" : "input.143",
      "weights" : {

      },
      "mode" : 3,
      "debug_info" : "out.7",
      "top" : "out.7",
      "type" : "activation",
      "name" : "out.7"
    },
    {
      "bottom" : "input.135,out.7",
      "alpha" : 1,
      "operation" : 1,
      "weights" : {

      },
      "fused_relu" : 0,
      "debug_info" : "s2.7",
      "top" : "s2.7",
      "type" : "elementwise",
      "name" : "s2.7",
      "beta" : 0
    },
    {
      "bottom" : "399_0,s2.5",
      "weights" : {

      },
      "interleave" : true,
      "nd_mode" : true,
      "axis" : 1,
      "debug_info" : "y.1",
      "top" : "y.1",
      "type" : "general_concat",
      "name" : "y.1"
    },
    {
      "bottom" : "401_0,s2.7",
      "weights" : {

      },
      "interleave" : true,
      "nd_mode" : true,
      "axis" : 1,
      "debug_info" : "input.145",
      "top" : "input.145",
      "type" : "general_concat",
      "name" : "input.145"
    },
    {
      "bottom" : "y.1,y.1",
      "alpha" : 1,
      "operation" : 0,
      "weights" : {

      },
      "fused_relu" : 0,
      "debug_info" : "y.3",
      "top" : "y.3",
      "type" : "elementwise",
      "name" : "y.3",
      "beta" : 0
    },
    {
      "pad_r" : 0,
      "fused_relu" : 0,
      "fused_tanh" : 0,
      "debug_info" : "input.149",
      "pad_fill_mode" : 0,
      "pad_b" : 0,
      "pad_l" : 0,
      "top" : "input.149",
      "blob_weights" : 107,
      "K" : 80,
      "blob_biases" : 105,
      "name" : "input.149",
      "has_batch_norm" : 0,
      "type" : "convolution",
      "n_groups" : 1,
      "pad_t" : 0,
      "has_biases" : 1,
      "C" : 40,
      "bottom" : "input.145",
      "weights" : {

      },
      "Nx" : 1,
      "pad_mode" : 0,
      "pad_value" : 0,
      "Ny" : 1,
      "n_parallel" : 1
    },
    {
      "top" : "579",
      "use_fractional_scale_factors" : false,
      "weights" : {

      },
      "fractional_scaling_factor_y" : 1,
      "type" : "upsample",
      "scaling_factor_x" : 2,
      "mode" : 0,
      "align_corners" : 0,
      "bottom" : "input.149",
      "debug_info" : "579",
      "fractional_scaling_factor_x" : 1,
      "is_legacy_mode" : 1,
      "name" : "579",
      "scaling_factor_y" : 2
    },
    {
      "weights" : {

      },
      "debug_info" : "580",
      "top" : "580",
      "type" : "copy",
      "name" : "580",
      "bottom" : "579"
    },
    {
      "bottom" : "y.3,580",
      "alpha" : 1,
      "operation" : 0,
      "weights" : {

      },
      "fused_relu" : 0,
      "debug_info" : "input.151",
      "top" : "input.151",
      "type" : "elementwise",
      "name" : "input.151",
      "beta" : 0
    },
    {
      "bottom" : "input.151",
      "weights" : {

      },
      "mode" : 0,
      "debug_info" : "s.13",
      "top" : "s.13",
      "type" : "activation",
      "name" : "s.13"
    },
    {
      "pad_r" : 1,
      "fused_relu" : 0,
      "fused_tanh" : 0,
      "debug_info" : "input.155",
      "pad_fill_mode" : 0,
      "pad_b" : 1,
      "pad_l" : 1,
      "top" : "input.155",
      "blob_weights" : 111,
      "K" : 40,
      "blob_biases" : 109,
      "stride_x" : 2,
      "name" : "input.155",
      "has_batch_norm" : 0,
      "type" : "convolution",
      "n_groups" : 40,
      "pad_t" : 1,
      "stride_y" : 2,
      "has_biases" : 1,
      "C" : 40,
      "bottom" : "input.151",
      "weights" : {

      },
      "Nx" : 3,
      "pad_mode" : 0,
      "pad_value" : 0,
      "Ny" : 3,
      "n_parallel" : 1
    },
    {
      "pad_r" : 0,
      "fused_relu" : 0,
      "fused_tanh" : 0,
      "debug_info" : "y.5",
      "pad_fill_mode" : 0,
      "pad_b" : 0,
      "pad_l" : 0,
      "top" : "y.5",
      "blob_weights" : 115,
      "K" : 40,
      "blob_biases" : 113,
      "name" : "y.5",
      "has_batch_norm" : 0,
      "type" : "convolution",
      "n_groups" : 1,
      "pad_t" : 0,
      "has_biases" : 1,
      "C" : 80,
      "bottom" : "input.155",
      "weights" : {

      },
      "Nx" : 1,
      "pad_mode" : 0,
      "pad_value" : 0,
      "Ny" : 1,
      "n_parallel" : 1
    },
    {
      "weights" : {

      },
      "debug_info" : "637",
      "top" : "637",
      "type" : "copy",
      "name" : "637",
      "bottom" : "y.5"
    },
    {
      "bottom" : "y.5,637",
      "alpha" : 1,
      "operation" : 0,
      "weights" : {

      },
      "fused_relu" : 0,
      "debug_info" : "y.7",
      "top" : "y.7",
      "type" : "elementwise",
      "name" : "y.7",
      "beta" : 0
    },
    {
      "weights" : {

      },
      "debug_info" : "639",
      "top" : "639",
      "type" : "copy",
      "name" : "639",
      "bottom" : "input.145"
    },
    {
      "bottom" : "y.7,639",
      "alpha" : 1,
      "operation" : 0,
      "weights" : {

      },
      "fused_relu" : 0,
      "debug_info" : "input.165",
      "top" : "input.165",
      "type" : "elementwise",
      "name" : "input.165",
      "beta" : 0
    },
    {
      "bottom" : "input.165",
      "weights" : {

      },
      "mode" : 0,
      "debug_info" : "s.15",
      "top" : "s.15",
      "type" : "activation",
      "name" : "s.15"
    },
    {
      "begin_104" : 0,
      "begin_63" : 0,
      "begin_59" : 0,
      "begin_64" : 0,
      "begin_105" : 0,
      "begin_65" : 0,
      "begin_0" : 0,
      "begin_70" : 0,
      "begin_66" : 0,
      "begin_106" : 0,
      "begin_110" : 0,
      "begin_2" : 0,
      "begin_71" : 0,
      "begin_67" : 0,
      "begin_68" : 0,
      "begin_107" : 0,
      "begin_111" : 0,
      "begin_4" : 0,
      "begin_72" : 0,
      "begin_73" : 0,
      "begin_69" : 0,
      "begin_6" : 0,
      "begin_74" : 0,
      "begin_108" : 0,
      "type" : "split_nd",
      "begin_8" : 0,
      "begin_112" : 0,
      "begin_75" : 0,
      "begin_10" : 0,
      "begin_80" : 0,
      "begin_76" : 0,
      "begin_109" : 0,
      "begin_113" : 0,
      "begin_11" : 0,
      "nd_axis" : 1,
      "begin_81" : 0,
      "begin_77" : 0,
      "begin_114" : 0,
      "begin_12" : 0,
      "begin_78" : 0,
      "begin_82" : 0,
      "begin_13" : 0,
      "begin_83" : 0,
      "begin_79" : 0,
      "begin_115" : 0,
      "begin_14" : 0,
      "begin_84" : 0,
      "begin_15" : 0,
      "begin_85" : 0,
      "begin_116" : 0,
      "begin_120" : 0,
      "begin_20" : 0,
      "begin_86" : 0,
      "begin_16" : 0,
      "begin_90" : 0,
      "begin_21" : 0,
      "begin_91" : 0,
      "begin_87" : 0,
      "begin_17" : 0,
      "begin_117" : 0,
      "begin_121" : 0,
      "begin_18" : 0,
      "begin_92" : 0,
      "begin_88" : 0,
      "begin_22" : 0,
      "begin_23" : 0,
      "begin_89" : 0,
      "begin_19" : 0,
      "begin_93" : 0,
      "begin_118" : 0,
      "begin_122" : 0,
      "begin_24" : 0,
      "begin_94" : 0,
      "begin_25" : 0,
      "begin_95" : 0,
      "begin_119" : 0,
      "begin_123" : 0,
      "begin_30" : 0,
      "begin_26" : 0,
      "begin_96" : 0,
      "begin_124" : 0,
      "begin_31" : 0,
      "begin_97" : 0,
      "begin_27" : 0,
      "begin_28" : 0,
      "begin_98" : 0,
      "begin_32" : 0,
      "begin_125" : 0,
      "begin_33" : 0,
      "begin_29" : 0,
      "begin_99" : 0,
      "begin_1" : 0,
      "weights" : {

      },
      "begin_34" : 0,
      "bottom" : "s.13",
      "begin_3" : 0,
      "begin_126" : 0,
      "begin_35" : 0,
      "begin_5" : 0,
      "begin_36" : 0,
      "begin_40" : 0,
      "begin_127" : 0,
      "name" : "663",
      "begin_41" : 0,
      "begin_37" : 0,
      "begin_7" : 0,
      "begin_42" : 0,
      "begin_38" : 0,
      "begin_9" : 0,
      "begin_39" : 0,
      "begin_43" : 0,
      "begin_44" : 0,
      "begin_45" : 0,
      "begin_50" : 0,
      "begin_46" : 0,
      "begin_51" : 0,
      "begin_47" : 0,
      "begin_100" : 0,
      "begin_52" : 0,
      "debug_info" : "663",
      "begin_48" : 0,
      "top" : "663_0,663_1",
      "begin_101" : 0,
      "begin_53" : 0,
      "begin_49" : 0,
      "begin_54" : 0,
      "begin_55" : 0,
      "begin_102" : 0,
      "begin_60" : 0,
      "begin_56" : 0,
      "begin_103" : 0,
      "begin_57" : 0,
      "begin_61" : 0,
      "begin_62" : 0,
      "begin_58" : 0
    },
    {
      "begin_104" : 0,
      "begin_63" : 0,
      "begin_59" : 0,
      "begin_64" : 0,
      "begin_105" : 0,
      "begin_65" : 0,
      "begin_0" : 0,
      "begin_70" : 0,
      "begin_66" : 0,
      "begin_106" : 0,
      "begin_110" : 0,
      "begin_2" : 0,
      "begin_71" : 0,
      "begin_67" : 0,
      "begin_68" : 0,
      "begin_107" : 0,
      "begin_111" : 0,
      "begin_4" : 0,
      "begin_72" : 0,
      "begin_73" : 0,
      "begin_69" : 0,
      "begin_6" : 0,
      "begin_74" : 0,
      "begin_108" : 0,
      "type" : "split_nd",
      "begin_8" : 0,
      "begin_112" : 0,
      "begin_75" : 0,
      "begin_10" : 0,
      "begin_80" : 0,
      "begin_76" : 0,
      "begin_109" : 0,
      "begin_113" : 0,
      "begin_11" : 0,
      "nd_axis" : 1,
      "begin_81" : 0,
      "begin_77" : 0,
      "begin_114" : 0,
      "begin_12" : 0,
      "begin_78" : 0,
      "begin_82" : 0,
      "begin_13" : 0,
      "begin_83" : 0,
      "begin_79" : 0,
      "begin_115" : 0,
      "begin_14" : 0,
      "begin_84" : 0,
      "begin_15" : 0,
      "begin_85" : 0,
      "begin_116" : 0,
      "begin_120" : 0,
      "begin_20" : 0,
      "begin_86" : 0,
      "begin_16" : 0,
      "begin_90" : 0,
      "begin_21" : 0,
      "begin_91" : 0,
      "begin_87" : 0,
      "begin_17" : 0,
      "begin_117" : 0,
      "begin_121" : 0,
      "begin_18" : 0,
      "begin_92" : 0,
      "begin_88" : 0,
      "begin_22" : 0,
      "begin_23" : 0,
      "begin_89" : 0,
      "begin_19" : 0,
      "begin_93" : 0,
      "begin_118" : 0,
      "begin_122" : 0,
      "begin_24" : 0,
      "begin_94" : 0,
      "begin_25" : 0,
      "begin_95" : 0,
      "begin_119" : 0,
      "begin_123" : 0,
      "begin_30" : 0,
      "begin_26" : 0,
      "begin_96" : 0,
      "begin_124" : 0,
      "begin_31" : 0,
      "begin_97" : 0,
      "begin_27" : 0,
      "begin_28" : 0,
      "begin_98" : 0,
      "begin_32" : 0,
      "begin_125" : 0,
      "begin_33" : 0,
      "begin_29" : 0,
      "begin_99" : 0,
      "begin_1" : 0,
      "weights" : {

      },
      "begin_34" : 0,
      "bottom" : "s.15",
      "begin_3" : 0,
      "begin_126" : 0,
      "begin_35" : 0,
      "begin_5" : 0,
      "begin_36" : 0,
      "begin_40" : 0,
      "begin_127" : 0,
      "name" : "665",
      "begin_41" : 0,
      "begin_37" : 0,
      "begin_7" : 0,
      "begin_42" : 0,
      "begin_38" : 0,
      "begin_9" : 0,
      "begin_39" : 0,
      "begin_43" : 0,
      "begin_44" : 0,
      "begin_45" : 0,
      "begin_50" : 0,
      "begin_46" : 0,
      "begin_51" : 0,
      "begin_47" : 0,
      "begin_100" : 0,
      "begin_52" : 0,
      "debug_info" : "665",
      "begin_48" : 0,
      "top" : "665_0,665_1",
      "begin_101" : 0,
      "begin_53" : 0,
      "begin_49" : 0,
      "begin_54" : 0,
      "begin_55" : 0,
      "begin_102" : 0,
      "begin_60" : 0,
      "begin_56" : 0,
      "begin_103" : 0,
      "begin_57" : 0,
      "begin_61" : 0,
      "begin_62" : 0,
      "begin_58" : 0
    },
    {
      "pad_r" : 0,
      "debug_info" : "672",
      "pad_fill_mode" : 0,
      "pad_b" : 0,
      "pad_l" : 0,
      "size_x" : 2,
      "top" : "672",
      "top_shape_style" : 0,
      "stride_x" : 2,
      "avg_or_max" : 0,
      "average_count_exclude_padding" : 0,
      "type" : "pool",
      "name" : "672",
      "pad_t" : 0,
      "stride_y" : 2,
      "bottom" : "663_1",
      "weights" : {

      },
      "pad_mode" : 2,
      "size_y" : 2,
      "pad_value" : 0
    },
    {
      "weights" : {

      },
      "debug_info" : "input.169",
      "top" : "input.169",
      "type" : "concat",
      "name" : "input.169",
      "bottom" : "672,665_1"
    },
    {
      "pad_r" : 0,
      "fused_relu" : 1,
      "fused_tanh" : 0,
      "debug_info" : "input.173",
      "pad_fill_mode" : 0,
      "pad_b" : 0,
      "pad_l" : 0,
      "top" : "input.175",
      "blob_weights" : 119,
      "K" : 60,
      "blob_biases" : 117,
      "name" : "input.173",
      "has_batch_norm" : 0,
      "type" : "convolution",
      "n_groups" : 1,
      "pad_t" : 0,
      "has_biases" : 1,
      "C" : 7,
      "bottom" : "input.169",
      "weights" : {

      },
      "Nx" : 1,
      "pad_mode" : 0,
      "pad_value" : 0,
      "Ny" : 1,
      "n_parallel" : 1
    },
    {
      "pad_r" : 0,
      "fused_relu" : 0,
      "fused_tanh" : 0,
      "debug_info" : "input.179",
      "pad_fill_mode" : 0,
      "pad_b" : 0,
      "pad_l" : 0,
      "top" : "input.179",
      "blob_weights" : 123,
      "K" : 7,
      "blob_biases" : 121,
      "name" : "input.179",
      "has_batch_norm" : 0,
      "type" : "convolution",
      "n_groups" : 1,
      "pad_t" : 0,
      "has_biases" : 1,
      "C" : 60,
      "bottom" : "input.175",
      "weights" : {

      },
      "Nx" : 1,
      "pad_mode" : 0,
      "pad_value" : 0,
      "Ny" : 1,
      "n_parallel" : 1
    },
    {
      "bottom" : "input.179",
      "weights" : {

      },
      "mode" : 3,
      "debug_info" : "702",
      "top" : "702",
      "type" : "activation",
      "name" : "702"
    },
    {
      "begin_104" : 0,
      "begin_63" : 0,
      "begin_59" : 0,
      "begin_64" : 0,
      "begin_105" : 0,
      "begin_65" : 0,
      "begin_0" : 20,
      "begin_70" : 0,
      "begin_66" : 0,
      "begin_106" : 0,
      "begin_110" : 0,
      "begin_2" : 0,
      "begin_71" : 0,
      "begin_67" : 0,
      "begin_68" : 0,
      "begin_107" : 0,
      "begin_111" : 0,
      "begin_4" : 0,
      "begin_72" : 0,
      "begin_73" : 0,
      "begin_69" : 0,
      "begin_6" : 0,
      "begin_74" : 0,
      "begin_108" : 0,
      "type" : "split_nd",
      "begin_8" : 0,
      "begin_112" : 0,
      "begin_75" : 0,
      "begin_10" : 0,
      "begin_80" : 0,
      "begin_76" : 0,
      "begin_109" : 0,
      "begin_113" : 0,
      "begin_11" : 0,
      "nd_axis" : 1,
      "begin_81" : 0,
      "begin_77" : 0,
      "begin_114" : 0,
      "begin_12" : 0,
      "begin_78" : 0,
      "begin_82" : 0,
      "begin_13" : 0,
      "begin_83" : 0,
      "begin_79" : 0,
      "begin_115" : 0,
      "begin_14" : 0,
      "begin_84" : 0,
      "begin_15" : 0,
      "begin_85" : 0,
      "begin_116" : 0,
      "begin_120" : 0,
      "begin_20" : 0,
      "begin_86" : 0,
      "begin_16" : 0,
      "begin_90" : 0,
      "begin_21" : 0,
      "begin_91" : 0,
      "begin_87" : 0,
      "begin_17" : 0,
      "begin_117" : 0,
      "begin_121" : 0,
      "begin_18" : 0,
      "begin_92" : 0,
      "begin_88" : 0,
      "begin_22" : 0,
      "begin_23" : 0,
      "begin_89" : 0,
      "begin_19" : 0,
      "begin_93" : 0,
      "begin_118" : 0,
      "begin_122" : 0,
      "begin_24" : 0,
      "begin_94" : 0,
      "begin_25" : 0,
      "begin_95" : 0,
      "begin_119" : 0,
      "begin_123" : 0,
      "begin_30" : 0,
      "begin_26" : 0,
      "begin_96" : 0,
      "begin_124" : 0,
      "begin_31" : 0,
      "begin_97" : 0,
      "begin_27" : 0,
      "begin_28" : 0,
      "begin_98" : 0,
      "begin_32" : 0,
      "begin_125" : 0,
      "begin_33" : 0,
      "begin_29" : 0,
      "begin_99" : 0,
      "begin_1" : 40,
      "weights" : {

      },
      "begin_34" : 0,
      "bottom" : "702",
      "begin_3" : 0,
      "begin_126" : 0,
      "begin_35" : 0,
      "begin_5" : 0,
      "begin_36" : 0,
      "begin_40" : 0,
      "begin_127" : 0,
      "name" : "704",
      "begin_41" : 0,
      "begin_37" : 0,
      "begin_7" : 0,
      "begin_42" : 0,
      "begin_38" : 0,
      "begin_9" : 0,
      "begin_39" : 0,
      "begin_43" : 0,
      "begin_44" : 0,
      "begin_45" : 0,
      "begin_50" : 0,
      "begin_46" : 0,
      "begin_51" : 0,
      "begin_47" : 0,
      "begin_100" : 0,
      "begin_52" : 0,
      "debug_info" : "704",
      "begin_48" : 0,
      "top" : "704_0,704_1",
      "begin_101" : 0,
      "begin_53" : 0,
      "begin_49" : 0,
      "begin_54" : 0,
      "begin_55" : 0,
      "begin_102" : 0,
      "begin_60" : 0,
      "begin_56" : 0,
      "begin_103" : 0,
      "begin_57" : 0,
      "begin_61" : 0,
      "begin_62" : 0,
      "begin_58" : 0
    },
    {
      "top" : "710",
      "use_fractional_scale_factors" : false,
      "weights" : {

      },
      "fractional_scaling_factor_y" : 1,
      "type" : "upsample",
      "scaling_factor_x" : 2,
      "mode" : 0,
      "align_corners" : 0,
      "bottom" : "704_0",
      "debug_info" : "710",
      "fractional_scaling_factor_x" : 1,
      "is_legacy_mode" : 1,
      "name" : "710",
      "scaling_factor_y" : 2
    },
    {
      "bottom" : "663_1,710",
      "alpha" : 1,
      "operation" : 1,
      "weights" : {

      },
      "fused_relu" : 0,
      "debug_info" : "input.185",
      "top" : "input.185",
      "type" : "elementwise",
      "name" : "input.185",
      "beta" : 0
    },
    {
      "bottom" : "665_1,704_1",
      "alpha" : 1,
      "operation" : 1,
      "weights" : {

      },
      "fused_relu" : 0,
      "debug_info" : "input.189",
      "top" : "input.189",
      "type" : "elementwise",
      "name" : "input.189",
      "beta" : 0
    },
    {
      "pad_r" : 1,
      "fused_relu" : 0,
      "fused_tanh" : 0,
      "debug_info" : "input.193",
      "pad_fill_mode" : 0,
      "pad_b" : 1,
      "pad_l" : 1,
      "top" : "input.193",
      "blob_weights" : 127,
      "K" : 20,
      "blob_biases" : 125,
      "name" : "input.193",
      "has_batch_norm" : 0,
      "type" : "convolution",
      "n_groups" : 20,
      "pad_t" : 1,
      "has_biases" : 1,
      "C" : 20,
      "bottom" : "input.185",
      "weights" : {

      },
      "Nx" : 3,
      "pad_mode" : 0,
      "pad_value" : 0,
      "Ny" : 3,
      "n_parallel" : 1
    },
    {
      "pad_r" : 1,
      "fused_relu" : 0,
      "fused_tanh" : 0,
      "debug_info" : "input.203",
      "pad_fill_mode" : 0,
      "pad_b" : 1,
      "pad_l" : 1,
      "top" : "input.203",
      "blob_weights" : 131,
      "K" : 40,
      "blob_biases" : 129,
      "name" : "input.203",
      "has_batch_norm" : 0,
      "type" : "convolution",
      "n_groups" : 40,
      "pad_t" : 1,
      "has_biases" : 1,
      "C" : 40,
      "bottom" : "input.189",
      "weights" : {

      },
      "Nx" : 3,
      "pad_mode" : 0,
      "pad_value" : 0,
      "Ny" : 3,
      "n_parallel" : 1
    },
    {
      "pad_r" : 0,
      "debug_info" : "input.195",
      "pad_fill_mode" : 0,
      "pad_b" : 0,
      "pad_l" : 0,
      "size_x" : 72,
      "is_global" : 1,
      "top" : "input.195",
      "top_shape_style" : 0,
      "stride_x" : 1,
      "avg_or_max" : 0,
      "average_count_exclude_padding" : 1,
      "type" : "pool",
      "name" : "input.195",
      "pad_t" : 0,
      "stride_y" : 1,
      "bottom" : "input.193",
      "weights" : {

      },
      "pad_mode" : 2,
      "size_y" : 96,
      "pad_value" : 0
    },
    {
      "pad_r" : 0,
      "fused_relu" : 1,
      "fused_tanh" : 0,
      "debug_info" : "input.197",
      "pad_fill_mode" : 0,
      "pad_b" : 0,
      "pad_l" : 0,
      "top" : "input.199",
      "blob_weights" : 135,
      "K" : 20,
      "blob_biases" : 133,
      "name" : "input.197",
      "has_batch_norm" : 0,
      "type" : "convolution",
      "n_groups" : 1,
      "pad_t" : 0,
      "has_biases" : 1,
      "C" : 5,
      "bottom" : "input.195",
      "weights" : {

      },
      "Nx" : 1,
      "pad_mode" : 0,
      "pad_value" : 0,
      "Ny" : 1,
      "n_parallel" : 1
    },
    {
      "pad_r" : 0,
      "fused_relu" : 0,
      "fused_tanh" : 0,
      "debug_info" : "input.201",
      "pad_fill_mode" : 0,
      "pad_b" : 0,
      "pad_l" : 0,
      "top" : "input.201",
      "blob_weights" : 139,
      "K" : 5,
      "blob_biases" : 137,
      "name" : "input.201",
      "has_batch_norm" : 0,
      "type" : "convolution",
      "n_groups" : 1,
      "pad_t" : 0,
      "has_biases" : 1,
      "C" : 20,
      "bottom" : "input.199",
      "weights" : {

      },
      "Nx" : 1,
      "pad_mode" : 0,
      "pad_value" : 0,
      "Ny" : 1,
      "n_parallel" : 1
    },
    {
      "bottom" : "input.201",
      "weights" : {

      },
      "mode" : 3,
      "debug_info" : "out.9",
      "top" : "out.9",
      "type" : "activation",
      "name" : "out.9"
    },
    {
      "bottom" : "input.193,out.9",
      "alpha" : 1,
      "operation" : 1,
      "weights" : {

      },
      "fused_relu" : 0,
      "debug_info" : "s2.9",
      "top" : "s2.9",
      "type" : "elementwise",
      "name" : "s2.9",
      "beta" : 0
    },
    {
      "pad_r" : 0,
      "debug_info" : "input.205",
      "pad_fill_mode" : 0,
      "pad_b" : 0,
      "pad_l" : 0,
      "size_x" : 36,
      "is_global" : 1,
      "top" : "input.205",
      "top_shape_style" : 0,
      "stride_x" : 1,
      "avg_or_max" : 0,
      "average_count_exclude_padding" : 1,
      "type" : "pool",
      "name" : "input.205",
      "pad_t" : 0,
      "stride_y" : 1,
      "bottom" : "input.203",
      "weights" : {

      },
      "pad_mode" : 2,
      "size_y" : 48,
      "pad_value" : 0
    },
    {
      "pad_r" : 0,
      "fused_relu" : 1,
      "fused_tanh" : 0,
      "debug_info" : "input.207",
      "pad_fill_mode" : 0,
      "pad_b" : 0,
      "pad_l" : 0,
      "top" : "input.209",
      "blob_weights" : 143,
      "K" : 40,
      "blob_biases" : 141,
      "name" : "input.207",
      "has_batch_norm" : 0,
      "type" : "convolution",
      "n_groups" : 1,
      "pad_t" : 0,
      "has_biases" : 1,
      "C" : 10,
      "bottom" : "input.205",
      "weights" : {

      },
      "Nx" : 1,
      "pad_mode" : 0,
      "pad_value" : 0,
      "Ny" : 1,
      "n_parallel" : 1
    },
    {
      "pad_r" : 0,
      "fused_relu" : 0,
      "fused_tanh" : 0,
      "debug_info" : "input.211",
      "pad_fill_mode" : 0,
      "pad_b" : 0,
      "pad_l" : 0,
      "top" : "input.211",
      "blob_weights" : 147,
      "K" : 10,
      "blob_biases" : 145,
      "name" : "input.211",
      "has_batch_norm" : 0,
      "type" : "convolution",
      "n_groups" : 1,
      "pad_t" : 0,
      "has_biases" : 1,
      "C" : 40,
      "bottom" : "input.209",
      "weights" : {

      },
      "Nx" : 1,
      "pad_mode" : 0,
      "pad_value" : 0,
      "Ny" : 1,
      "n_parallel" : 1
    },
    {
      "bottom" : "input.211",
      "weights" : {

      },
      "mode" : 3,
      "debug_info" : "out.11",
      "top" : "out.11",
      "type" : "activation",
      "name" : "out.11"
    },
    {
      "bottom" : "input.203,out.11",
      "alpha" : 1,
      "operation" : 1,
      "weights" : {

      },
      "fused_relu" : 0,
      "debug_info" : "s2.11",
      "top" : "s2.11",
      "type" : "elementwise",
      "name" : "s2.11",
      "beta" : 0
    },
    {
      "bottom" : "663_0,s2.9",
      "weights" : {

      },
      "interleave" : true,
      "nd_mode" : true,
      "axis" : 1,
      "debug_info" : "s.19",
      "top" : "s.19",
      "type" : "general_concat",
      "name" : "s.19"
    },
    {
      "bottom" : "665_0,s2.11",
      "weights" : {

      },
      "interleave" : true,
      "nd_mode" : true,
      "axis" : 1,
      "debug_info" : "s.21",
      "top" : "s.21",
      "type" : "general_concat",
      "name" : "s.21"
    },
    {
      "begin_104" : 0,
      "begin_63" : 0,
      "begin_59" : 0,
      "begin_64" : 0,
      "begin_105" : 0,
      "begin_65" : 0,
      "begin_0" : 0,
      "begin_70" : 0,
      "begin_66" : 0,
      "begin_106" : 0,
      "begin_110" : 0,
      "begin_2" : 0,
      "begin_71" : 0,
      "begin_67" : 0,
      "begin_68" : 0,
      "begin_107" : 0,
      "begin_111" : 0,
      "begin_4" : 0,
      "begin_72" : 0,
      "begin_73" : 0,
      "begin_69" : 0,
      "begin_6" : 0,
      "begin_74" : 0,
      "begin_108" : 0,
      "type" : "split_nd",
      "begin_8" : 0,
      "begin_112" : 0,
      "begin_75" : 0,
      "begin_10" : 0,
      "begin_80" : 0,
      "begin_76" : 0,
      "begin_109" : 0,
      "begin_113" : 0,
      "begin_11" : 0,
      "nd_axis" : 1,
      "begin_81" : 0,
      "begin_77" : 0,
      "begin_114" : 0,
      "begin_12" : 0,
      "begin_78" : 0,
      "begin_82" : 0,
      "begin_13" : 0,
      "begin_83" : 0,
      "begin_79" : 0,
      "begin_115" : 0,
      "begin_14" : 0,
      "begin_84" : 0,
      "begin_15" : 0,
      "begin_85" : 0,
      "begin_116" : 0,
      "begin_120" : 0,
      "begin_20" : 0,
      "begin_86" : 0,
      "begin_16" : 0,
      "begin_90" : 0,
      "begin_21" : 0,
      "begin_91" : 0,
      "begin_87" : 0,
      "begin_17" : 0,
      "begin_117" : 0,
      "begin_121" : 0,
      "begin_18" : 0,
      "begin_92" : 0,
      "begin_88" : 0,
      "begin_22" : 0,
      "begin_23" : 0,
      "begin_89" : 0,
      "begin_19" : 0,
      "begin_93" : 0,
      "begin_118" : 0,
      "begin_122" : 0,
      "begin_24" : 0,
      "begin_94" : 0,
      "begin_25" : 0,
      "begin_95" : 0,
      "begin_119" : 0,
      "begin_123" : 0,
      "begin_30" : 0,
      "begin_26" : 0,
      "begin_96" : 0,
      "begin_124" : 0,
      "begin_31" : 0,
      "begin_97" : 0,
      "begin_27" : 0,
      "begin_28" : 0,
      "begin_98" : 0,
      "begin_32" : 0,
      "begin_125" : 0,
      "begin_33" : 0,
      "begin_29" : 0,
      "begin_99" : 0,
      "begin_1" : 0,
      "weights" : {

      },
      "begin_34" : 0,
      "bottom" : "s.19",
      "begin_3" : 0,
      "begin_126" : 0,
      "begin_35" : 0,
      "begin_5" : 0,
      "begin_36" : 0,
      "begin_40" : 0,
      "begin_127" : 0,
      "name" : "834",
      "begin_41" : 0,
      "begin_37" : 0,
      "begin_7" : 0,
      "begin_42" : 0,
      "begin_38" : 0,
      "begin_9" : 0,
      "begin_39" : 0,
      "begin_43" : 0,
      "begin_44" : 0,
      "begin_45" : 0,
      "begin_50" : 0,
      "begin_46" : 0,
      "begin_51" : 0,
      "begin_47" : 0,
      "begin_100" : 0,
      "begin_52" : 0,
      "debug_info" : "834",
      "begin_48" : 0,
      "top" : "834_0,834_1",
      "begin_101" : 0,
      "begin_53" : 0,
      "begin_49" : 0,
      "begin_54" : 0,
      "begin_55" : 0,
      "begin_102" : 0,
      "begin_60" : 0,
      "begin_56" : 0,
      "begin_103" : 0,
      "begin_57" : 0,
      "begin_61" : 0,
      "begin_62" : 0,
      "begin_58" : 0
    },
    {
      "begin_104" : 0,
      "begin_63" : 0,
      "begin_59" : 0,
      "begin_64" : 0,
      "begin_105" : 0,
      "begin_65" : 0,
      "begin_0" : 0,
      "begin_70" : 0,
      "begin_66" : 0,
      "begin_106" : 0,
      "begin_110" : 0,
      "begin_2" : 0,
      "begin_71" : 0,
      "begin_67" : 0,
      "begin_68" : 0,
      "begin_107" : 0,
      "begin_111" : 0,
      "begin_4" : 0,
      "begin_72" : 0,
      "begin_73" : 0,
      "begin_69" : 0,
      "begin_6" : 0,
      "begin_74" : 0,
      "begin_108" : 0,
      "type" : "split_nd",
      "begin_8" : 0,
      "begin_112" : 0,
      "begin_75" : 0,
      "begin_10" : 0,
      "begin_80" : 0,
      "begin_76" : 0,
      "begin_109" : 0,
      "begin_113" : 0,
      "begin_11" : 0,
      "nd_axis" : 1,
      "begin_81" : 0,
      "begin_77" : 0,
      "begin_114" : 0,
      "begin_12" : 0,
      "begin_78" : 0,
      "begin_82" : 0,
      "begin_13" : 0,
      "begin_83" : 0,
      "begin_79" : 0,
      "begin_115" : 0,
      "begin_14" : 0,
      "begin_84" : 0,
      "begin_15" : 0,
      "begin_85" : 0,
      "begin_116" : 0,
      "begin_120" : 0,
      "begin_20" : 0,
      "begin_86" : 0,
      "begin_16" : 0,
      "begin_90" : 0,
      "begin_21" : 0,
      "begin_91" : 0,
      "begin_87" : 0,
      "begin_17" : 0,
      "begin_117" : 0,
      "begin_121" : 0,
      "begin_18" : 0,
      "begin_92" : 0,
      "begin_88" : 0,
      "begin_22" : 0,
      "begin_23" : 0,
      "begin_89" : 0,
      "begin_19" : 0,
      "begin_93" : 0,
      "begin_118" : 0,
      "begin_122" : 0,
      "begin_24" : 0,
      "begin_94" : 0,
      "begin_25" : 0,
      "begin_95" : 0,
      "begin_119" : 0,
      "begin_123" : 0,
      "begin_30" : 0,
      "begin_26" : 0,
      "begin_96" : 0,
      "begin_124" : 0,
      "begin_31" : 0,
      "begin_97" : 0,
      "begin_27" : 0,
      "begin_28" : 0,
      "begin_98" : 0,
      "begin_32" : 0,
      "begin_125" : 0,
      "begin_33" : 0,
      "begin_29" : 0,
      "begin_99" : 0,
      "begin_1" : 0,
      "weights" : {

      },
      "begin_34" : 0,
      "bottom" : "s.21",
      "begin_3" : 0,
      "begin_126" : 0,
      "begin_35" : 0,
      "begin_5" : 0,
      "begin_36" : 0,
      "begin_40" : 0,
      "begin_127" : 0,
      "name" : "836",
      "begin_41" : 0,
      "begin_37" : 0,
      "begin_7" : 0,
      "begin_42" : 0,
      "begin_38" : 0,
      "begin_9" : 0,
      "begin_39" : 0,
      "begin_43" : 0,
      "begin_44" : 0,
      "begin_45" : 0,
      "begin_50" : 0,
      "begin_46" : 0,
      "begin_51" : 0,
      "begin_47" : 0,
      "begin_100" : 0,
      "begin_52" : 0,
      "debug_info" : "836",
      "begin_48" : 0,
      "top" : "836_0,836_1",
      "begin_101" : 0,
      "begin_53" : 0,
      "begin_49" : 0,
      "begin_54" : 0,
      "begin_55" : 0,
      "begin_102" : 0,
      "begin_60" : 0,
      "begin_56" : 0,
      "begin_103" : 0,
      "begin_57" : 0,
      "begin_61" : 0,
      "begin_62" : 0,
      "begin_58" : 0
    },
    {
      "pad_r" : 0,
      "debug_info" : "843",
      "pad_fill_mode" : 0,
      "pad_b" : 0,
      "pad_l" : 0,
      "size_x" : 2,
      "top" : "843",
      "top_shape_style" : 0,
      "stride_x" : 2,
      "avg_or_max" : 0,
      "average_count_exclude_padding" : 0,
      "type" : "pool",
      "name" : "843",
      "pad_t" : 0,
      "stride_y" : 2,
      "bottom" : "834_1",
      "weights" : {

      },
      "pad_mode" : 2,
      "size_y" : 2,
      "pad_value" : 0
    },
    {
      "weights" : {

      },
      "debug_info" : "input.215",
      "top" : "input.215",
      "type" : "concat",
      "name" : "input.215",
      "bottom" : "843,836_1"
    },
    {
      "pad_r" : 0,
      "fused_relu" : 1,
      "fused_tanh" : 0,
      "debug_info" : "input.219",
      "pad_fill_mode" : 0,
      "pad_b" : 0,
      "pad_l" : 0,
      "top" : "input.221",
      "blob_weights" : 151,
      "K" : 60,
      "blob_biases" : 149,
      "name" : "input.219",
      "has_batch_norm" : 0,
      "type" : "convolution",
      "n_groups" : 1,
      "pad_t" : 0,
      "has_biases" : 1,
      "C" : 7,
      "bottom" : "input.215",
      "weights" : {

      },
      "Nx" : 1,
      "pad_mode" : 0,
      "pad_value" : 0,
      "Ny" : 1,
      "n_parallel" : 1
    },
    {
      "pad_r" : 0,
      "fused_relu" : 0,
      "fused_tanh" : 0,
      "debug_info" : "input.225",
      "pad_fill_mode" : 0,
      "pad_b" : 0,
      "pad_l" : 0,
      "top" : "input.225",
      "blob_weights" : 155,
      "K" : 7,
      "blob_biases" : 153,
      "name" : "input.225",
      "has_batch_norm" : 0,
      "type" : "convolution",
      "n_groups" : 1,
      "pad_t" : 0,
      "has_biases" : 1,
      "C" : 60,
      "bottom" : "input.221",
      "weights" : {

      },
      "Nx" : 1,
      "pad_mode" : 0,
      "pad_value" : 0,
      "Ny" : 1,
      "n_parallel" : 1
    },
    {
      "bottom" : "input.225",
      "weights" : {

      },
      "mode" : 3,
      "debug_info" : "873",
      "top" : "873",
      "type" : "activation",
      "name" : "873"
    },
    {
      "begin_104" : 0,
      "begin_63" : 0,
      "begin_59" : 0,
      "begin_64" : 0,
      "begin_105" : 0,
      "begin_65" : 0,
      "begin_0" : 20,
      "begin_70" : 0,
      "begin_66" : 0,
      "begin_106" : 0,
      "begin_110" : 0,
      "begin_2" : 0,
      "begin_71" : 0,
      "begin_67" : 0,
      "begin_68" : 0,
      "begin_107" : 0,
      "begin_111" : 0,
      "begin_4" : 0,
      "begin_72" : 0,
      "begin_73" : 0,
      "begin_69" : 0,
      "begin_6" : 0,
      "begin_74" : 0,
      "begin_108" : 0,
      "type" : "split_nd",
      "begin_8" : 0,
      "begin_112" : 0,
      "begin_75" : 0,
      "begin_10" : 0,
      "begin_80" : 0,
      "begin_76" : 0,
      "begin_109" : 0,
      "begin_113" : 0,
      "begin_11" : 0,
      "nd_axis" : 1,
      "begin_81" : 0,
      "begin_77" : 0,
      "begin_114" : 0,
      "begin_12" : 0,
      "begin_78" : 0,
      "begin_82" : 0,
      "begin_13" : 0,
      "begin_83" : 0,
      "begin_79" : 0,
      "begin_115" : 0,
      "begin_14" : 0,
      "begin_84" : 0,
      "begin_15" : 0,
      "begin_85" : 0,
      "begin_116" : 0,
      "begin_120" : 0,
      "begin_20" : 0,
      "begin_86" : 0,
      "begin_16" : 0,
      "begin_90" : 0,
      "begin_21" : 0,
      "begin_91" : 0,
      "begin_87" : 0,
      "begin_17" : 0,
      "begin_117" : 0,
      "begin_121" : 0,
      "begin_18" : 0,
      "begin_92" : 0,
      "begin_88" : 0,
      "begin_22" : 0,
      "begin_23" : 0,
      "begin_89" : 0,
      "begin_19" : 0,
      "begin_93" : 0,
      "begin_118" : 0,
      "begin_122" : 0,
      "begin_24" : 0,
      "begin_94" : 0,
      "begin_25" : 0,
      "begin_95" : 0,
      "begin_119" : 0,
      "begin_123" : 0,
      "begin_30" : 0,
      "begin_26" : 0,
      "begin_96" : 0,
      "begin_124" : 0,
      "begin_31" : 0,
      "begin_97" : 0,
      "begin_27" : 0,
      "begin_28" : 0,
      "begin_98" : 0,
      "begin_32" : 0,
      "begin_125" : 0,
      "begin_33" : 0,
      "begin_29" : 0,
      "begin_99" : 0,
      "begin_1" : 40,
      "weights" : {

      },
      "begin_34" : 0,
      "bottom" : "873",
      "begin_3" : 0,
      "begin_126" : 0,
      "begin_35" : 0,
      "begin_5" : 0,
      "begin_36" : 0,
      "begin_40" : 0,
      "begin_127" : 0,
      "name" : "875",
      "begin_41" : 0,
      "begin_37" : 0,
      "begin_7" : 0,
      "begin_42" : 0,
      "begin_38" : 0,
      "begin_9" : 0,
      "begin_39" : 0,
      "begin_43" : 0,
      "begin_44" : 0,
      "begin_45" : 0,
      "begin_50" : 0,
      "begin_46" : 0,
      "begin_51" : 0,
      "begin_47" : 0,
      "begin_100" : 0,
      "begin_52" : 0,
      "debug_info" : "875",
      "begin_48" : 0,
      "top" : "875_0,875_1",
      "begin_101" : 0,
      "begin_53" : 0,
      "begin_49" : 0,
      "begin_54" : 0,
      "begin_55" : 0,
      "begin_102" : 0,
      "begin_60" : 0,
      "begin_56" : 0,
      "begin_103" : 0,
      "begin_57" : 0,
      "begin_61" : 0,
      "begin_62" : 0,
      "begin_58" : 0
    },
    {
      "top" : "881",
      "use_fractional_scale_factors" : false,
      "weights" : {

      },
      "fractional_scaling_factor_y" : 1,
      "type" : "upsample",
      "scaling_factor_x" : 2,
      "mode" : 0,
      "align_corners" : 0,
      "bottom" : "875_0",
      "debug_info" : "881",
      "fractional_scaling_factor_x" : 1,
      "is_legacy_mode" : 1,
      "name" : "881",
      "scaling_factor_y" : 2
    },
    {
      "bottom" : "834_1,881",
      "alpha" : 1,
      "operation" : 1,
      "weights" : {

      },
      "fused_relu" : 0,
      "debug_info" : "input.231",
      "top" : "input.231",
      "type" : "elementwise",
      "name" : "input.231",
      "beta" : 0
    },
    {
      "bottom" : "836_1,875_1",
      "alpha" : 1,
      "operation" : 1,
      "weights" : {

      },
      "fused_relu" : 0,
      "debug_info" : "input.235",
      "top" : "input.235",
      "type" : "elementwise",
      "name" : "input.235",
      "beta" : 0
    },
    {
      "pad_r" : 1,
      "fused_relu" : 0,
      "fused_tanh" : 0,
      "debug_info" : "input.239",
      "pad_fill_mode" : 0,
      "pad_b" : 1,
      "pad_l" : 1,
      "top" : "input.239",
      "blob_weights" : 159,
      "K" : 20,
      "blob_biases" : 157,
      "name" : "input.239",
      "has_batch_norm" : 0,
      "type" : "convolution",
      "n_groups" : 20,
      "pad_t" : 1,
      "has_biases" : 1,
      "C" : 20,
      "bottom" : "input.231",
      "weights" : {

      },
      "Nx" : 3,
      "pad_mode" : 0,
      "pad_value" : 0,
      "Ny" : 3,
      "n_parallel" : 1
    },
    {
      "pad_r" : 1,
      "fused_relu" : 0,
      "fused_tanh" : 0,
      "debug_info" : "input.249",
      "pad_fill_mode" : 0,
      "pad_b" : 1,
      "pad_l" : 1,
      "top" : "input.249",
      "blob_weights" : 163,
      "K" : 40,
      "blob_biases" : 161,
      "name" : "input.249",
      "has_batch_norm" : 0,
      "type" : "convolution",
      "n_groups" : 40,
      "pad_t" : 1,
      "has_biases" : 1,
      "C" : 40,
      "bottom" : "input.235",
      "weights" : {

      },
      "Nx" : 3,
      "pad_mode" : 0,
      "pad_value" : 0,
      "Ny" : 3,
      "n_parallel" : 1
    },
    {
      "pad_r" : 0,
      "debug_info" : "input.241",
      "pad_fill_mode" : 0,
      "pad_b" : 0,
      "pad_l" : 0,
      "size_x" : 72,
      "is_global" : 1,
      "top" : "input.241",
      "top_shape_style" : 0,
      "stride_x" : 1,
      "avg_or_max" : 0,
      "average_count_exclude_padding" : 1,
      "type" : "pool",
      "name" : "input.241",
      "pad_t" : 0,
      "stride_y" : 1,
      "bottom" : "input.239",
      "weights" : {

      },
      "pad_mode" : 2,
      "size_y" : 96,
      "pad_value" : 0
    },
    {
      "pad_r" : 0,
      "fused_relu" : 1,
      "fused_tanh" : 0,
      "debug_info" : "input.243",
      "pad_fill_mode" : 0,
      "pad_b" : 0,
      "pad_l" : 0,
      "top" : "input.245",
      "blob_weights" : 167,
      "K" : 20,
      "blob_biases" : 165,
      "name" : "input.243",
      "has_batch_norm" : 0,
      "type" : "convolution",
      "n_groups" : 1,
      "pad_t" : 0,
      "has_biases" : 1,
      "C" : 5,
      "bottom" : "input.241",
      "weights" : {

      },
      "Nx" : 1,
      "pad_mode" : 0,
      "pad_value" : 0,
      "Ny" : 1,
      "n_parallel" : 1
    },
    {
      "pad_r" : 0,
      "fused_relu" : 0,
      "fused_tanh" : 0,
      "debug_info" : "input.247",
      "pad_fill_mode" : 0,
      "pad_b" : 0,
      "pad_l" : 0,
      "top" : "input.247",
      "blob_weights" : 171,
      "K" : 5,
      "blob_biases" : 169,
      "name" : "input.247",
      "has_batch_norm" : 0,
      "type" : "convolution",
      "n_groups" : 1,
      "pad_t" : 0,
      "has_biases" : 1,
      "C" : 20,
      "bottom" : "input.245",
      "weights" : {

      },
      "Nx" : 1,
      "pad_mode" : 0,
      "pad_value" : 0,
      "Ny" : 1,
      "n_parallel" : 1
    },
    {
      "bottom" : "input.247",
      "weights" : {

      },
      "mode" : 3,
      "debug_info" : "out.13",
      "top" : "out.13",
      "type" : "activation",
      "name" : "out.13"
    },
    {
      "bottom" : "input.239,out.13",
      "alpha" : 1,
      "operation" : 1,
      "weights" : {

      },
      "fused_relu" : 0,
      "debug_info" : "s2.13",
      "top" : "s2.13",
      "type" : "elementwise",
      "name" : "s2.13",
      "beta" : 0
    },
    {
      "pad_r" : 0,
      "debug_info" : "input.251",
      "pad_fill_mode" : 0,
      "pad_b" : 0,
      "pad_l" : 0,
      "size_x" : 36,
      "is_global" : 1,
      "top" : "input.251",
      "top_shape_style" : 0,
      "stride_x" : 1,
      "avg_or_max" : 0,
      "average_count_exclude_padding" : 1,
      "type" : "pool",
      "name" : "input.251",
      "pad_t" : 0,
      "stride_y" : 1,
      "bottom" : "input.249",
      "weights" : {

      },
      "pad_mode" : 2,
      "size_y" : 48,
      "pad_value" : 0
    },
    {
      "pad_r" : 0,
      "fused_relu" : 1,
      "fused_tanh" : 0,
      "debug_info" : "input.253",
      "pad_fill_mode" : 0,
      "pad_b" : 0,
      "pad_l" : 0,
      "top" : "input.255",
      "blob_weights" : 175,
      "K" : 40,
      "blob_biases" : 173,
      "name" : "input.253",
      "has_batch_norm" : 0,
      "type" : "convolution",
      "n_groups" : 1,
      "pad_t" : 0,
      "has_biases" : 1,
      "C" : 10,
      "bottom" : "input.251",
      "weights" : {

      },
      "Nx" : 1,
      "pad_mode" : 0,
      "pad_value" : 0,
      "Ny" : 1,
      "n_parallel" : 1
    },
    {
      "pad_r" : 0,
      "fused_relu" : 0,
      "fused_tanh" : 0,
      "debug_info" : "input.257",
      "pad_fill_mode" : 0,
      "pad_b" : 0,
      "pad_l" : 0,
      "top" : "input.257",
      "blob_weights" : 179,
      "K" : 10,
      "blob_biases" : 177,
      "name" : "input.257",
      "has_batch_norm" : 0,
      "type" : "convolution",
      "n_groups" : 1,
      "pad_t" : 0,
      "has_biases" : 1,
      "C" : 40,
      "bottom" : "input.255",
      "weights" : {

      },
      "Nx" : 1,
      "pad_mode" : 0,
      "pad_value" : 0,
      "Ny" : 1,
      "n_parallel" : 1
    },
    {
      "bottom" : "input.257",
      "weights" : {

      },
      "mode" : 3,
      "debug_info" : "out.15",
      "top" : "out.15",
      "type" : "activation",
      "name" : "out.15"
    },
    {
      "bottom" : "input.249,out.15",
      "alpha" : 1,
      "operation" : 1,
      "weights" : {

      },
      "fused_relu" : 0,
      "debug_info" : "s2.15",
      "top" : "s2.15",
      "type" : "elementwise",
      "name" : "s2.15",
      "beta" : 0
    },
    {
      "bottom" : "834_0,s2.13",
      "weights" : {

      },
      "interleave" : true,
      "nd_mode" : true,
      "axis" : 1,
      "debug_info" : "y.9",
      "top" : "y.9",
      "type" : "general_concat",
      "name" : "y.9"
    },
    {
      "bottom" : "836_0,s2.15",
      "weights" : {

      },
      "interleave" : true,
      "nd_mode" : true,
      "axis" : 1,
      "debug_info" : "input.259",
      "top" : "input.259",
      "type" : "general_concat",
      "name" : "input.259"
    },
    {
      "bottom" : "y.9,y.9",
      "alpha" : 1,
      "operation" : 0,
      "weights" : {

      },
      "fused_relu" : 0,
      "debug_info" : "y.11",
      "top" : "y.11",
      "type" : "elementwise",
      "name" : "y.11",
      "beta" : 0
    },
    {
      "pad_r" : 0,
      "fused_relu" : 0,
      "fused_tanh" : 0,
      "debug_info" : "input.263",
      "pad_fill_mode" : 0,
      "pad_b" : 0,
      "pad_l" : 0,
      "top" : "input.263",
      "blob_weights" : 183,
      "K" : 80,
      "blob_biases" : 181,
      "name" : "input.263",
      "has_batch_norm" : 0,
      "type" : "convolution",
      "n_groups" : 1,
      "pad_t" : 0,
      "has_biases" : 1,
      "C" : 40,
      "bottom" : "input.259",
      "weights" : {

      },
      "Nx" : 1,
      "pad_mode" : 0,
      "pad_value" : 0,
      "Ny" : 1,
      "n_parallel" : 1
    },
    {
      "top" : "1014",
      "use_fractional_scale_factors" : false,
      "weights" : {

      },
      "fractional_scaling_factor_y" : 1,
      "type" : "upsample",
      "scaling_factor_x" : 2,
      "mode" : 0,
      "align_corners" : 0,
      "bottom" : "input.263",
      "debug_info" : "1014",
      "fractional_scaling_factor_x" : 1,
      "is_legacy_mode" : 1,
      "name" : "1014",
      "scaling_factor_y" : 2
    },
    {
      "weights" : {

      },
      "debug_info" : "1015",
      "top" : "1015",
      "type" : "copy",
      "name" : "1015",
      "bottom" : "1014"
    },
    {
      "bottom" : "y.11,1015",
      "alpha" : 1,
      "operation" : 0,
      "weights" : {

      },
      "fused_relu" : 0,
      "debug_info" : "input.265",
      "top" : "input.265",
      "type" : "elementwise",
      "name" : "input.265",
      "beta" : 0
    },
    {
      "bottom" : "input.265",
      "weights" : {

      },
      "mode" : 0,
      "debug_info" : "s.25",
      "top" : "s.25",
      "type" : "activation",
      "name" : "s.25"
    },
    {
      "pad_r" : 1,
      "fused_relu" : 0,
      "fused_tanh" : 0,
      "debug_info" : "input.269",
      "pad_fill_mode" : 0,
      "pad_b" : 1,
      "pad_l" : 1,
      "top" : "input.269",
      "blob_weights" : 187,
      "K" : 40,
      "blob_biases" : 185,
      "stride_x" : 2,
      "name" : "input.269",
      "has_batch_norm" : 0,
      "type" : "convolution",
      "n_groups" : 40,
      "pad_t" : 1,
      "stride_y" : 2,
      "has_biases" : 1,
      "C" : 40,
      "bottom" : "input.265",
      "weights" : {

      },
      "Nx" : 3,
      "pad_mode" : 0,
      "pad_value" : 0,
      "Ny" : 3,
      "n_parallel" : 1
    },
    {
      "pad_r" : 0,
      "fused_relu" : 0,
      "fused_tanh" : 0,
      "debug_info" : "y.13",
      "pad_fill_mode" : 0,
      "pad_b" : 0,
      "pad_l" : 0,
      "top" : "y.13",
      "blob_weights" : 191,
      "K" : 40,
      "blob_biases" : 189,
      "name" : "y.13",
      "has_batch_norm" : 0,
      "type" : "convolution",
      "n_groups" : 1,
      "pad_t" : 0,
      "has_biases" : 1,
      "C" : 80,
      "bottom" : "input.269",
      "weights" : {

      },
      "Nx" : 1,
      "pad_mode" : 0,
      "pad_value" : 0,
      "Ny" : 1,
      "n_parallel" : 1
    },
    {
      "weights" : {

      },
      "debug_info" : "1072",
      "top" : "1072",
      "type" : "copy",
      "name" : "1072",
      "bottom" : "y.13"
    },
    {
      "bottom" : "y.13,1072",
      "alpha" : 1,
      "operation" : 0,
      "weights" : {

      },
      "fused_relu" : 0,
      "debug_info" : "y.15",
      "top" : "y.15",
      "type" : "elementwise",
      "name" : "y.15",
      "beta" : 0
    },
    {
      "weights" : {

      },
      "debug_info" : "1074",
      "top" : "1074",
      "type" : "copy",
      "name" : "1074",
      "bottom" : "input.259"
    },
    {
      "bottom" : "y.15,1074",
      "alpha" : 1,
      "operation" : 0,
      "weights" : {

      },
      "fused_relu" : 0,
      "debug_info" : "input.279",
      "top" : "input.279",
      "type" : "elementwise",
      "name" : "input.279",
      "beta" : 0
    },
    {
      "bottom" : "input.279",
      "weights" : {

      },
      "mode" : 0,
      "debug_info" : "s.27",
      "top" : "s.27",
      "type" : "activation",
      "name" : "s.27"
    },
    {
      "begin_104" : 0,
      "begin_63" : 0,
      "begin_59" : 0,
      "begin_64" : 0,
      "begin_105" : 0,
      "begin_65" : 0,
      "begin_0" : 0,
      "begin_70" : 0,
      "begin_66" : 0,
      "begin_106" : 0,
      "begin_110" : 0,
      "begin_2" : 0,
      "begin_71" : 0,
      "begin_67" : 0,
      "begin_68" : 0,
      "begin_107" : 0,
      "begin_111" : 0,
      "begin_4" : 0,
      "begin_72" : 0,
      "begin_73" : 0,
      "begin_69" : 0,
      "begin_6" : 0,
      "begin_74" : 0,
      "begin_108" : 0,
      "type" : "split_nd",
      "begin_8" : 0,
      "begin_112" : 0,
      "begin_75" : 0,
      "begin_10" : 0,
      "begin_80" : 0,
      "begin_76" : 0,
      "begin_109" : 0,
      "begin_113" : 0,
      "begin_11" : 0,
      "nd_axis" : 1,
      "begin_81" : 0,
      "begin_77" : 0,
      "begin_114" : 0,
      "begin_12" : 0,
      "begin_78" : 0,
      "begin_82" : 0,
      "begin_13" : 0,
      "begin_83" : 0,
      "begin_79" : 0,
      "begin_115" : 0,
      "begin_14" : 0,
      "begin_84" : 0,
      "begin_15" : 0,
      "begin_85" : 0,
      "begin_116" : 0,
      "begin_120" : 0,
      "begin_20" : 0,
      "begin_86" : 0,
      "begin_16" : 0,
      "begin_90" : 0,
      "begin_21" : 0,
      "begin_91" : 0,
      "begin_87" : 0,
      "begin_17" : 0,
      "begin_117" : 0,
      "begin_121" : 0,
      "begin_18" : 0,
      "begin_92" : 0,
      "begin_88" : 0,
      "begin_22" : 0,
      "begin_23" : 0,
      "begin_89" : 0,
      "begin_19" : 0,
      "begin_93" : 0,
      "begin_118" : 0,
      "begin_122" : 0,
      "begin_24" : 0,
      "begin_94" : 0,
      "begin_25" : 0,
      "begin_95" : 0,
      "begin_119" : 0,
      "begin_123" : 0,
      "begin_30" : 0,
      "begin_26" : 0,
      "begin_96" : 0,
      "begin_124" : 0,
      "begin_31" : 0,
      "begin_97" : 0,
      "begin_27" : 0,
      "begin_28" : 0,
      "begin_98" : 0,
      "begin_32" : 0,
      "begin_125" : 0,
      "begin_33" : 0,
      "begin_29" : 0,
      "begin_99" : 0,
      "begin_1" : 0,
      "weights" : {

      },
      "begin_34" : 0,
      "bottom" : "s.25",
      "begin_3" : 0,
      "begin_126" : 0,
      "begin_35" : 0,
      "begin_5" : 0,
      "begin_36" : 0,
      "begin_40" : 0,
      "begin_127" : 0,
      "name" : "1098",
      "begin_41" : 0,
      "begin_37" : 0,
      "begin_7" : 0,
      "begin_42" : 0,
      "begin_38" : 0,
      "begin_9" : 0,
      "begin_39" : 0,
      "begin_43" : 0,
      "begin_44" : 0,
      "begin_45" : 0,
      "begin_50" : 0,
      "begin_46" : 0,
      "begin_51" : 0,
      "begin_47" : 0,
      "begin_100" : 0,
      "begin_52" : 0,
      "debug_info" : "1098",
      "begin_48" : 0,
      "top" : "1098_0,1098_1",
      "begin_101" : 0,
      "begin_53" : 0,
      "begin_49" : 0,
      "begin_54" : 0,
      "begin_55" : 0,
      "begin_102" : 0,
      "begin_60" : 0,
      "begin_56" : 0,
      "begin_103" : 0,
      "begin_57" : 0,
      "begin_61" : 0,
      "begin_62" : 0,
      "begin_58" : 0
    },
    {
      "begin_104" : 0,
      "begin_63" : 0,
      "begin_59" : 0,
      "begin_64" : 0,
      "begin_105" : 0,
      "begin_65" : 0,
      "begin_0" : 0,
      "begin_70" : 0,
      "begin_66" : 0,
      "begin_106" : 0,
      "begin_110" : 0,
      "begin_2" : 0,
      "begin_71" : 0,
      "begin_67" : 0,
      "begin_68" : 0,
      "begin_107" : 0,
      "begin_111" : 0,
      "begin_4" : 0,
      "begin_72" : 0,
      "begin_73" : 0,
      "begin_69" : 0,
      "begin_6" : 0,
      "begin_74" : 0,
      "begin_108" : 0,
      "type" : "split_nd",
      "begin_8" : 0,
      "begin_112" : 0,
      "begin_75" : 0,
      "begin_10" : 0,
      "begin_80" : 0,
      "begin_76" : 0,
      "begin_109" : 0,
      "begin_113" : 0,
      "begin_11" : 0,
      "nd_axis" : 1,
      "begin_81" : 0,
      "begin_77" : 0,
      "begin_114" : 0,
      "begin_12" : 0,
      "begin_78" : 0,
      "begin_82" : 0,
      "begin_13" : 0,
      "begin_83" : 0,
      "begin_79" : 0,
      "begin_115" : 0,
      "begin_14" : 0,
      "begin_84" : 0,
      "begin_15" : 0,
      "begin_85" : 0,
      "begin_116" : 0,
      "begin_120" : 0,
      "begin_20" : 0,
      "begin_86" : 0,
      "begin_16" : 0,
      "begin_90" : 0,
      "begin_21" : 0,
      "begin_91" : 0,
      "begin_87" : 0,
      "begin_17" : 0,
      "begin_117" : 0,
      "begin_121" : 0,
      "begin_18" : 0,
      "begin_92" : 0,
      "begin_88" : 0,
      "begin_22" : 0,
      "begin_23" : 0,
      "begin_89" : 0,
      "begin_19" : 0,
      "begin_93" : 0,
      "begin_118" : 0,
      "begin_122" : 0,
      "begin_24" : 0,
      "begin_94" : 0,
      "begin_25" : 0,
      "begin_95" : 0,
      "begin_119" : 0,
      "begin_123" : 0,
      "begin_30" : 0,
      "begin_26" : 0,
      "begin_96" : 0,
      "begin_124" : 0,
      "begin_31" : 0,
      "begin_97" : 0,
      "begin_27" : 0,
      "begin_28" : 0,
      "begin_98" : 0,
      "begin_32" : 0,
      "begin_125" : 0,
      "begin_33" : 0,
      "begin_29" : 0,
      "begin_99" : 0,
      "begin_1" : 0,
      "weights" : {

      },
      "begin_34" : 0,
      "bottom" : "s.27",
      "begin_3" : 0,
      "begin_126" : 0,
      "begin_35" : 0,
      "begin_5" : 0,
      "begin_36" : 0,
      "begin_40" : 0,
      "begin_127" : 0,
      "name" : "1100",
      "begin_41" : 0,
      "begin_37" : 0,
      "begin_7" : 0,
      "begin_42" : 0,
      "begin_38" : 0,
      "begin_9" : 0,
      "begin_39" : 0,
      "begin_43" : 0,
      "begin_44" : 0,
      "begin_45" : 0,
      "begin_50" : 0,
      "begin_46" : 0,
      "begin_51" : 0,
      "begin_47" : 0,
      "begin_100" : 0,
      "begin_52" : 0,
      "debug_info" : "1100",
      "begin_48" : 0,
      "top" : "1100_0,1100_1",
      "begin_101" : 0,
      "begin_53" : 0,
      "begin_49" : 0,
      "begin_54" : 0,
      "begin_55" : 0,
      "begin_102" : 0,
      "begin_60" : 0,
      "begin_56" : 0,
      "begin_103" : 0,
      "begin_57" : 0,
      "begin_61" : 0,
      "begin_62" : 0,
      "begin_58" : 0
    },
    {
      "pad_r" : 0,
      "debug_info" : "1107",
      "pad_fill_mode" : 0,
      "pad_b" : 0,
      "pad_l" : 0,
      "size_x" : 2,
      "top" : "1107",
      "top_shape_style" : 0,
      "stride_x" : 2,
      "avg_or_max" : 0,
      "average_count_exclude_padding" : 0,
      "type" : "pool",
      "name" : "1107",
      "pad_t" : 0,
      "stride_y" : 2,
      "bottom" : "1098_1",
      "weights" : {

      },
      "pad_mode" : 2,
      "size_y" : 2,
      "pad_value" : 0
    },
    {
      "weights" : {

      },
      "debug_info" : "input.283",
      "top" : "input.283",
      "type" : "concat",
      "name" : "input.283",
      "bottom" : "1107,1100_1"
    },
    {
      "pad_r" : 0,
      "fused_relu" : 1,
      "fused_tanh" : 0,
      "debug_info" : "input.287",
      "pad_fill_mode" : 0,
      "pad_b" : 0,
      "pad_l" : 0,
      "top" : "input.289",
      "blob_weights" : 195,
      "K" : 60,
      "blob_biases" : 193,
      "name" : "input.287",
      "has_batch_norm" : 0,
      "type" : "convolution",
      "n_groups" : 1,
      "pad_t" : 0,
      "has_biases" : 1,
      "C" : 7,
      "bottom" : "input.283",
      "weights" : {

      },
      "Nx" : 1,
      "pad_mode" : 0,
      "pad_value" : 0,
      "Ny" : 1,
      "n_parallel" : 1
    },
    {
      "pad_r" : 0,
      "fused_relu" : 0,
      "fused_tanh" : 0,
      "debug_info" : "input.293",
      "pad_fill_mode" : 0,
      "pad_b" : 0,
      "pad_l" : 0,
      "top" : "input.293",
      "blob_weights" : 199,
      "K" : 7,
      "blob_biases" : 197,
      "name" : "input.293",
      "has_batch_norm" : 0,
      "type" : "convolution",
      "n_groups" : 1,
      "pad_t" : 0,
      "has_biases" : 1,
      "C" : 60,
      "bottom" : "input.289",
      "weights" : {

      },
      "Nx" : 1,
      "pad_mode" : 0,
      "pad_value" : 0,
      "Ny" : 1,
      "n_parallel" : 1
    },
    {
      "bottom" : "input.293",
      "weights" : {

      },
      "mode" : 3,
      "debug_info" : "1137",
      "top" : "1137",
      "type" : "activation",
      "name" : "1137"
    },
    {
      "begin_104" : 0,
      "begin_63" : 0,
      "begin_59" : 0,
      "begin_64" : 0,
      "begin_105" : 0,
      "begin_65" : 0,
      "begin_0" : 20,
      "begin_70" : 0,
      "begin_66" : 0,
      "begin_106" : 0,
      "begin_110" : 0,
      "begin_2" : 0,
      "begin_71" : 0,
      "begin_67" : 0,
      "begin_68" : 0,
      "begin_107" : 0,
      "begin_111" : 0,
      "begin_4" : 0,
      "begin_72" : 0,
      "begin_73" : 0,
      "begin_69" : 0,
      "begin_6" : 0,
      "begin_74" : 0,
      "begin_108" : 0,
      "type" : "split_nd",
      "begin_8" : 0,
      "begin_112" : 0,
      "begin_75" : 0,
      "begin_10" : 0,
      "begin_80" : 0,
      "begin_76" : 0,
      "begin_109" : 0,
      "begin_113" : 0,
      "begin_11" : 0,
      "nd_axis" : 1,
      "begin_81" : 0,
      "begin_77" : 0,
      "begin_114" : 0,
      "begin_12" : 0,
      "begin_78" : 0,
      "begin_82" : 0,
      "begin_13" : 0,
      "begin_83" : 0,
      "begin_79" : 0,
      "begin_115" : 0,
      "begin_14" : 0,
      "begin_84" : 0,
      "begin_15" : 0,
      "begin_85" : 0,
      "begin_116" : 0,
      "begin_120" : 0,
      "begin_20" : 0,
      "begin_86" : 0,
      "begin_16" : 0,
      "begin_90" : 0,
      "begin_21" : 0,
      "begin_91" : 0,
      "begin_87" : 0,
      "begin_17" : 0,
      "begin_117" : 0,
      "begin_121" : 0,
      "begin_18" : 0,
      "begin_92" : 0,
      "begin_88" : 0,
      "begin_22" : 0,
      "begin_23" : 0,
      "begin_89" : 0,
      "begin_19" : 0,
      "begin_93" : 0,
      "begin_118" : 0,
      "begin_122" : 0,
      "begin_24" : 0,
      "begin_94" : 0,
      "begin_25" : 0,
      "begin_95" : 0,
      "begin_119" : 0,
      "begin_123" : 0,
      "begin_30" : 0,
      "begin_26" : 0,
      "begin_96" : 0,
      "begin_124" : 0,
      "begin_31" : 0,
      "begin_97" : 0,
      "begin_27" : 0,
      "begin_28" : 0,
      "begin_98" : 0,
      "begin_32" : 0,
      "begin_125" : 0,
      "begin_33" : 0,
      "begin_29" : 0,
      "begin_99" : 0,
      "begin_1" : 40,
      "weights" : {

      },
      "begin_34" : 0,
      "bottom" : "1137",
      "begin_3" : 0,
      "begin_126" : 0,
      "begin_35" : 0,
      "begin_5" : 0,
      "begin_36" : 0,
      "begin_40" : 0,
      "begin_127" : 0,
      "name" : "1139",
      "begin_41" : 0,
      "begin_37" : 0,
      "begin_7" : 0,
      "begin_42" : 0,
      "begin_38" : 0,
      "begin_9" : 0,
      "begin_39" : 0,
      "begin_43" : 0,
      "begin_44" : 0,
      "begin_45" : 0,
      "begin_50" : 0,
      "begin_46" : 0,
      "begin_51" : 0,
      "begin_47" : 0,
      "begin_100" : 0,
      "begin_52" : 0,
      "debug_info" : "1139",
      "begin_48" : 0,
      "top" : "1139_0,1139_1",
      "begin_101" : 0,
      "begin_53" : 0,
      "begin_49" : 0,
      "begin_54" : 0,
      "begin_55" : 0,
      "begin_102" : 0,
      "begin_60" : 0,
      "begin_56" : 0,
      "begin_103" : 0,
      "begin_57" : 0,
      "begin_61" : 0,
      "begin_62" : 0,
      "begin_58" : 0
    },
    {
      "top" : "1145",
      "use_fractional_scale_factors" : false,
      "weights" : {

      },
      "fractional_scaling_factor_y" : 1,
      "type" : "upsample",
      "scaling_factor_x" : 2,
      "mode" : 0,
      "align_corners" : 0,
      "bottom" : "1139_0",
      "debug_info" : "1145",
      "fractional_scaling_factor_x" : 1,
      "is_legacy_mode" : 1,
      "name" : "1145",
      "scaling_factor_y" : 2
    },
    {
      "bottom" : "1098_1,1145",
      "alpha" : 1,
      "operation" : 1,
      "weights" : {

      },
      "fused_relu" : 0,
      "debug_info" : "input.299",
      "top" : "input.299",
      "type" : "elementwise",
      "name" : "input.299",
      "beta" : 0
    },
    {
      "bottom" : "1100_1,1139_1",
      "alpha" : 1,
      "operation" : 1,
      "weights" : {

      },
      "fused_relu" : 0,
      "debug_info" : "input.303",
      "top" : "input.303",
      "type" : "elementwise",
      "name" : "input.303",
      "beta" : 0
    },
    {
      "pad_r" : 1,
      "fused_relu" : 0,
      "fused_tanh" : 0,
      "debug_info" : "input.307",
      "pad_fill_mode" : 0,
      "pad_b" : 1,
      "pad_l" : 1,
      "top" : "input.307",
      "blob_weights" : 203,
      "K" : 20,
      "blob_biases" : 201,
      "name" : "input.307",
      "has_batch_norm" : 0,
      "type" : "convolution",
      "n_groups" : 20,
      "pad_t" : 1,
      "has_biases" : 1,
      "C" : 20,
      "bottom" : "input.299",
      "weights" : {

      },
      "Nx" : 3,
      "pad_mode" : 0,
      "pad_value" : 0,
      "Ny" : 3,
      "n_parallel" : 1
    },
    {
      "pad_r" : 1,
      "fused_relu" : 0,
      "fused_tanh" : 0,
      "debug_info" : "input.317",
      "pad_fill_mode" : 0,
      "pad_b" : 1,
      "pad_l" : 1,
      "top" : "input.317",
      "blob_weights" : 207,
      "K" : 40,
      "blob_biases" : 205,
      "name" : "input.317",
      "has_batch_norm" : 0,
      "type" : "convolution",
      "n_groups" : 40,
      "pad_t" : 1,
      "has_biases" : 1,
      "C" : 40,
      "bottom" : "input.303",
      "weights" : {

      },
      "Nx" : 3,
      "pad_mode" : 0,
      "pad_value" : 0,
      "Ny" : 3,
      "n_parallel" : 1
    },
    {
      "pad_r" : 0,
      "debug_info" : "input.309",
      "pad_fill_mode" : 0,
      "pad_b" : 0,
      "pad_l" : 0,
      "size_x" : 72,
      "is_global" : 1,
      "top" : "input.309",
      "top_shape_style" : 0,
      "stride_x" : 1,
      "avg_or_max" : 0,
      "average_count_exclude_padding" : 1,
      "type" : "pool",
      "name" : "input.309",
      "pad_t" : 0,
      "stride_y" : 1,
      "bottom" : "input.307",
      "weights" : {

      },
      "pad_mode" : 2,
      "size_y" : 96,
      "pad_value" : 0
    },
    {
      "pad_r" : 0,
      "fused_relu" : 1,
      "fused_tanh" : 0,
      "debug_info" : "input.311",
      "pad_fill_mode" : 0,
      "pad_b" : 0,
      "pad_l" : 0,
      "top" : "input.313",
      "blob_weights" : 211,
      "K" : 20,
      "blob_biases" : 209,
      "name" : "input.311",
      "has_batch_norm" : 0,
      "type" : "convolution",
      "n_groups" : 1,
      "pad_t" : 0,
      "has_biases" : 1,
      "C" : 5,
      "bottom" : "input.309",
      "weights" : {

      },
      "Nx" : 1,
      "pad_mode" : 0,
      "pad_value" : 0,
      "Ny" : 1,
      "n_parallel" : 1
    },
    {
      "pad_r" : 0,
      "fused_relu" : 0,
      "fused_tanh" : 0,
      "debug_info" : "input.315",
      "pad_fill_mode" : 0,
      "pad_b" : 0,
      "pad_l" : 0,
      "top" : "input.315",
      "blob_weights" : 215,
      "K" : 5,
      "blob_biases" : 213,
      "name" : "input.315",
      "has_batch_norm" : 0,
      "type" : "convolution",
      "n_groups" : 1,
      "pad_t" : 0,
      "has_biases" : 1,
      "C" : 20,
      "bottom" : "input.313",
      "weights" : {

      },
      "Nx" : 1,
      "pad_mode" : 0,
      "pad_value" : 0,
      "Ny" : 1,
      "n_parallel" : 1
    },
    {
      "bottom" : "input.315",
      "weights" : {

      },
      "mode" : 3,
      "debug_info" : "out.17",
      "top" : "out.17",
      "type" : "activation",
      "name" : "out.17"
    },
    {
      "bottom" : "input.307,out.17",
      "alpha" : 1,
      "operation" : 1,
      "weights" : {

      },
      "fused_relu" : 0,
      "debug_info" : "s2.17",
      "top" : "s2.17",
      "type" : "elementwise",
      "name" : "s2.17",
      "beta" : 0
    },
    {
      "pad_r" : 0,
      "debug_info" : "input.319",
      "pad_fill_mode" : 0,
      "pad_b" : 0,
      "pad_l" : 0,
      "size_x" : 36,
      "is_global" : 1,
      "top" : "input.319",
      "top_shape_style" : 0,
      "stride_x" : 1,
      "avg_or_max" : 0,
      "average_count_exclude_padding" : 1,
      "type" : "pool",
      "name" : "input.319",
      "pad_t" : 0,
      "stride_y" : 1,
      "bottom" : "input.317",
      "weights" : {

      },
      "pad_mode" : 2,
      "size_y" : 48,
      "pad_value" : 0
    },
    {
      "pad_r" : 0,
      "fused_relu" : 1,
      "fused_tanh" : 0,
      "debug_info" : "input.321",
      "pad_fill_mode" : 0,
      "pad_b" : 0,
      "pad_l" : 0,
      "top" : "input.323",
      "blob_weights" : 219,
      "K" : 40,
      "blob_biases" : 217,
      "name" : "input.321",
      "has_batch_norm" : 0,
      "type" : "convolution",
      "n_groups" : 1,
      "pad_t" : 0,
      "has_biases" : 1,
      "C" : 10,
      "bottom" : "input.319",
      "weights" : {

      },
      "Nx" : 1,
      "pad_mode" : 0,
      "pad_value" : 0,
      "Ny" : 1,
      "n_parallel" : 1
    },
    {
      "pad_r" : 0,
      "fused_relu" : 0,
      "fused_tanh" : 0,
      "debug_info" : "input.325",
      "pad_fill_mode" : 0,
      "pad_b" : 0,
      "pad_l" : 0,
      "top" : "input.325",
      "blob_weights" : 223,
      "K" : 10,
      "blob_biases" : 221,
      "name" : "input.325",
      "has_batch_norm" : 0,
      "type" : "convolution",
      "n_groups" : 1,
      "pad_t" : 0,
      "has_biases" : 1,
      "C" : 40,
      "bottom" : "input.323",
      "weights" : {

      },
      "Nx" : 1,
      "pad_mode" : 0,
      "pad_value" : 0,
      "Ny" : 1,
      "n_parallel" : 1
    },
    {
      "bottom" : "input.325",
      "weights" : {

      },
      "mode" : 3,
      "debug_info" : "out.19",
      "top" : "out.19",
      "type" : "activation",
      "name" : "out.19"
    },
    {
      "bottom" : "input.317,out.19",
      "alpha" : 1,
      "operation" : 1,
      "weights" : {

      },
      "fused_relu" : 0,
      "debug_info" : "s2.19",
      "top" : "s2.19",
      "type" : "elementwise",
      "name" : "s2.19",
      "beta" : 0
    },
    {
      "bottom" : "1098_0,s2.17",
      "weights" : {

      },
      "interleave" : true,
      "nd_mode" : true,
      "axis" : 1,
      "debug_info" : "s.31",
      "top" : "s.31",
      "type" : "general_concat",
      "name" : "s.31"
    },
    {
      "bottom" : "1100_0,s2.19",
      "weights" : {

      },
      "interleave" : true,
      "nd_mode" : true,
      "axis" : 1,
      "debug_info" : "s.33",
      "top" : "s.33",
      "type" : "general_concat",
      "name" : "s.33"
    },
    {
      "begin_104" : 0,
      "begin_63" : 0,
      "begin_59" : 0,
      "begin_64" : 0,
      "begin_105" : 0,
      "begin_65" : 0,
      "begin_0" : 0,
      "begin_70" : 0,
      "begin_66" : 0,
      "begin_106" : 0,
      "begin_110" : 0,
      "begin_2" : 0,
      "begin_71" : 0,
      "begin_67" : 0,
      "begin_68" : 0,
      "begin_107" : 0,
      "begin_111" : 0,
      "begin_4" : 0,
      "begin_72" : 0,
      "begin_73" : 0,
      "begin_69" : 0,
      "begin_6" : 0,
      "begin_74" : 0,
      "begin_108" : 0,
      "type" : "split_nd",
      "begin_8" : 0,
      "begin_112" : 0,
      "begin_75" : 0,
      "begin_10" : 0,
      "begin_80" : 0,
      "begin_76" : 0,
      "begin_109" : 0,
      "begin_113" : 0,
      "begin_11" : 0,
      "nd_axis" : 1,
      "begin_81" : 0,
      "begin_77" : 0,
      "begin_114" : 0,
      "begin_12" : 0,
      "begin_78" : 0,
      "begin_82" : 0,
      "begin_13" : 0,
      "begin_83" : 0,
      "begin_79" : 0,
      "begin_115" : 0,
      "begin_14" : 0,
      "begin_84" : 0,
      "begin_15" : 0,
      "begin_85" : 0,
      "begin_116" : 0,
      "begin_120" : 0,
      "begin_20" : 0,
      "begin_86" : 0,
      "begin_16" : 0,
      "begin_90" : 0,
      "begin_21" : 0,
      "begin_91" : 0,
      "begin_87" : 0,
      "begin_17" : 0,
      "begin_117" : 0,
      "begin_121" : 0,
      "begin_18" : 0,
      "begin_92" : 0,
      "begin_88" : 0,
      "begin_22" : 0,
      "begin_23" : 0,
      "begin_89" : 0,
      "begin_19" : 0,
      "begin_93" : 0,
      "begin_118" : 0,
      "begin_122" : 0,
      "begin_24" : 0,
      "begin_94" : 0,
      "begin_25" : 0,
      "begin_95" : 0,
      "begin_119" : 0,
      "begin_123" : 0,
      "begin_30" : 0,
      "begin_26" : 0,
      "begin_96" : 0,
      "begin_124" : 0,
      "begin_31" : 0,
      "begin_97" : 0,
      "begin_27" : 0,
      "begin_28" : 0,
      "begin_98" : 0,
      "begin_32" : 0,
      "begin_125" : 0,
      "begin_33" : 0,
      "begin_29" : 0,
      "begin_99" : 0,
      "begin_1" : 0,
      "weights" : {

      },
      "begin_34" : 0,
      "bottom" : "s.31",
      "begin_3" : 0,
      "begin_126" : 0,
      "begin_35" : 0,
      "begin_5" : 0,
      "begin_36" : 0,
      "begin_40" : 0,
      "begin_127" : 0,
      "name" : "1269",
      "begin_41" : 0,
      "begin_37" : 0,
      "begin_7" : 0,
      "begin_42" : 0,
      "begin_38" : 0,
      "begin_9" : 0,
      "begin_39" : 0,
      "begin_43" : 0,
      "begin_44" : 0,
      "begin_45" : 0,
      "begin_50" : 0,
      "begin_46" : 0,
      "begin_51" : 0,
      "begin_47" : 0,
      "begin_100" : 0,
      "begin_52" : 0,
      "debug_info" : "1269",
      "begin_48" : 0,
      "top" : "1269_0,1269_1",
      "begin_101" : 0,
      "begin_53" : 0,
      "begin_49" : 0,
      "begin_54" : 0,
      "begin_55" : 0,
      "begin_102" : 0,
      "begin_60" : 0,
      "begin_56" : 0,
      "begin_103" : 0,
      "begin_57" : 0,
      "begin_61" : 0,
      "begin_62" : 0,
      "begin_58" : 0
    },
    {
      "begin_104" : 0,
      "begin_63" : 0,
      "begin_59" : 0,
      "begin_64" : 0,
      "begin_105" : 0,
      "begin_65" : 0,
      "begin_0" : 0,
      "begin_70" : 0,
      "begin_66" : 0,
      "begin_106" : 0,
      "begin_110" : 0,
      "begin_2" : 0,
      "begin_71" : 0,
      "begin_67" : 0,
      "begin_68" : 0,
      "begin_107" : 0,
      "begin_111" : 0,
      "begin_4" : 0,
      "begin_72" : 0,
      "begin_73" : 0,
      "begin_69" : 0,
      "begin_6" : 0,
      "begin_74" : 0,
      "begin_108" : 0,
      "type" : "split_nd",
      "begin_8" : 0,
      "begin_112" : 0,
      "begin_75" : 0,
      "begin_10" : 0,
      "begin_80" : 0,
      "begin_76" : 0,
      "begin_109" : 0,
      "begin_113" : 0,
      "begin_11" : 0,
      "nd_axis" : 1,
      "begin_81" : 0,
      "begin_77" : 0,
      "begin_114" : 0,
      "begin_12" : 0,
      "begin_78" : 0,
      "begin_82" : 0,
      "begin_13" : 0,
      "begin_83" : 0,
      "begin_79" : 0,
      "begin_115" : 0,
      "begin_14" : 0,
      "begin_84" : 0,
      "begin_15" : 0,
      "begin_85" : 0,
      "begin_116" : 0,
      "begin_120" : 0,
      "begin_20" : 0,
      "begin_86" : 0,
      "begin_16" : 0,
      "begin_90" : 0,
      "begin_21" : 0,
      "begin_91" : 0,
      "begin_87" : 0,
      "begin_17" : 0,
      "begin_117" : 0,
      "begin_121" : 0,
      "begin_18" : 0,
      "begin_92" : 0,
      "begin_88" : 0,
      "begin_22" : 0,
      "begin_23" : 0,
      "begin_89" : 0,
      "begin_19" : 0,
      "begin_93" : 0,
      "begin_118" : 0,
      "begin_122" : 0,
      "begin_24" : 0,
      "begin_94" : 0,
      "begin_25" : 0,
      "begin_95" : 0,
      "begin_119" : 0,
      "begin_123" : 0,
      "begin_30" : 0,
      "begin_26" : 0,
      "begin_96" : 0,
      "begin_124" : 0,
      "begin_31" : 0,
      "begin_97" : 0,
      "begin_27" : 0,
      "begin_28" : 0,
      "begin_98" : 0,
      "begin_32" : 0,
      "begin_125" : 0,
      "begin_33" : 0,
      "begin_29" : 0,
      "begin_99" : 0,
      "begin_1" : 0,
      "weights" : {

      },
      "begin_34" : 0,
      "bottom" : "s.33",
      "begin_3" : 0,
      "begin_126" : 0,
      "begin_35" : 0,
      "begin_5" : 0,
      "begin_36" : 0,
      "begin_40" : 0,
      "begin_127" : 0,
      "name" : "1271",
      "begin_41" : 0,
      "begin_37" : 0,
      "begin_7" : 0,
      "begin_42" : 0,
      "begin_38" : 0,
      "begin_9" : 0,
      "begin_39" : 0,
      "begin_43" : 0,
      "begin_44" : 0,
      "begin_45" : 0,
      "begin_50" : 0,
      "begin_46" : 0,
      "begin_51" : 0,
      "begin_47" : 0,
      "begin_100" : 0,
      "begin_52" : 0,
      "debug_info" : "1271",
      "begin_48" : 0,
      "top" : "1271_0,1271_1",
      "begin_101" : 0,
      "begin_53" : 0,
      "begin_49" : 0,
      "begin_54" : 0,
      "begin_55" : 0,
      "begin_102" : 0,
      "begin_60" : 0,
      "begin_56" : 0,
      "begin_103" : 0,
      "begin_57" : 0,
      "begin_61" : 0,
      "begin_62" : 0,
      "begin_58" : 0
    },
    {
      "pad_r" : 0,
      "debug_info" : "1278",
      "pad_fill_mode" : 0,
      "pad_b" : 0,
      "pad_l" : 0,
      "size_x" : 2,
      "top" : "1278",
      "top_shape_style" : 0,
      "stride_x" : 2,
      "avg_or_max" : 0,
      "average_count_exclude_padding" : 0,
      "type" : "pool",
      "name" : "1278",
      "pad_t" : 0,
      "stride_y" : 2,
      "bottom" : "1269_1",
      "weights" : {

      },
      "pad_mode" : 2,
      "size_y" : 2,
      "pad_value" : 0
    },
    {
      "weights" : {

      },
      "debug_info" : "input.329",
      "top" : "input.329",
      "type" : "concat",
      "name" : "input.329",
      "bottom" : "1278,1271_1"
    },
    {
      "pad_r" : 0,
      "fused_relu" : 1,
      "fused_tanh" : 0,
      "debug_info" : "input.333",
      "pad_fill_mode" : 0,
      "pad_b" : 0,
      "pad_l" : 0,
      "top" : "input.335",
      "blob_weights" : 227,
      "K" : 60,
      "blob_biases" : 225,
      "name" : "input.333",
      "has_batch_norm" : 0,
      "type" : "convolution",
      "n_groups" : 1,
      "pad_t" : 0,
      "has_biases" : 1,
      "C" : 7,
      "bottom" : "input.329",
      "weights" : {

      },
      "Nx" : 1,
      "pad_mode" : 0,
      "pad_value" : 0,
      "Ny" : 1,
      "n_parallel" : 1
    },
    {
      "pad_r" : 0,
      "fused_relu" : 0,
      "fused_tanh" : 0,
      "debug_info" : "input.339",
      "pad_fill_mode" : 0,
      "pad_b" : 0,
      "pad_l" : 0,
      "top" : "input.339",
      "blob_weights" : 231,
      "K" : 7,
      "blob_biases" : 229,
      "name" : "input.339",
      "has_batch_norm" : 0,
      "type" : "convolution",
      "n_groups" : 1,
      "pad_t" : 0,
      "has_biases" : 1,
      "C" : 60,
      "bottom" : "input.335",
      "weights" : {

      },
      "Nx" : 1,
      "pad_mode" : 0,
      "pad_value" : 0,
      "Ny" : 1,
      "n_parallel" : 1
    },
    {
      "bottom" : "input.339",
      "weights" : {

      },
      "mode" : 3,
      "debug_info" : "1308",
      "top" : "1308",
      "type" : "activation",
      "name" : "1308"
    },
    {
      "begin_104" : 0,
      "begin_63" : 0,
      "begin_59" : 0,
      "begin_64" : 0,
      "begin_105" : 0,
      "begin_65" : 0,
      "begin_0" : 20,
      "begin_70" : 0,
      "begin_66" : 0,
      "begin_106" : 0,
      "begin_110" : 0,
      "begin_2" : 0,
      "begin_71" : 0,
      "begin_67" : 0,
      "begin_68" : 0,
      "begin_107" : 0,
      "begin_111" : 0,
      "begin_4" : 0,
      "begin_72" : 0,
      "begin_73" : 0,
      "begin_69" : 0,
      "begin_6" : 0,
      "begin_74" : 0,
      "begin_108" : 0,
      "type" : "split_nd",
      "begin_8" : 0,
      "begin_112" : 0,
      "begin_75" : 0,
      "begin_10" : 0,
      "begin_80" : 0,
      "begin_76" : 0,
      "begin_109" : 0,
      "begin_113" : 0,
      "begin_11" : 0,
      "nd_axis" : 1,
      "begin_81" : 0,
      "begin_77" : 0,
      "begin_114" : 0,
      "begin_12" : 0,
      "begin_78" : 0,
      "begin_82" : 0,
      "begin_13" : 0,
      "begin_83" : 0,
      "begin_79" : 0,
      "begin_115" : 0,
      "begin_14" : 0,
      "begin_84" : 0,
      "begin_15" : 0,
      "begin_85" : 0,
      "begin_116" : 0,
      "begin_120" : 0,
      "begin_20" : 0,
      "begin_86" : 0,
      "begin_16" : 0,
      "begin_90" : 0,
      "begin_21" : 0,
      "begin_91" : 0,
      "begin_87" : 0,
      "begin_17" : 0,
      "begin_117" : 0,
      "begin_121" : 0,
      "begin_18" : 0,
      "begin_92" : 0,
      "begin_88" : 0,
      "begin_22" : 0,
      "begin_23" : 0,
      "begin_89" : 0,
      "begin_19" : 0,
      "begin_93" : 0,
      "begin_118" : 0,
      "begin_122" : 0,
      "begin_24" : 0,
      "begin_94" : 0,
      "begin_25" : 0,
      "begin_95" : 0,
      "begin_119" : 0,
      "begin_123" : 0,
      "begin_30" : 0,
      "begin_26" : 0,
      "begin_96" : 0,
      "begin_124" : 0,
      "begin_31" : 0,
      "begin_97" : 0,
      "begin_27" : 0,
      "begin_28" : 0,
      "begin_98" : 0,
      "begin_32" : 0,
      "begin_125" : 0,
      "begin_33" : 0,
      "begin_29" : 0,
      "begin_99" : 0,
      "begin_1" : 40,
      "weights" : {

      },
      "begin_34" : 0,
      "bottom" : "1308",
      "begin_3" : 0,
      "begin_126" : 0,
      "begin_35" : 0,
      "begin_5" : 0,
      "begin_36" : 0,
      "begin_40" : 0,
      "begin_127" : 0,
      "name" : "1310",
      "begin_41" : 0,
      "begin_37" : 0,
      "begin_7" : 0,
      "begin_42" : 0,
      "begin_38" : 0,
      "begin_9" : 0,
      "begin_39" : 0,
      "begin_43" : 0,
      "begin_44" : 0,
      "begin_45" : 0,
      "begin_50" : 0,
      "begin_46" : 0,
      "begin_51" : 0,
      "begin_47" : 0,
      "begin_100" : 0,
      "begin_52" : 0,
      "debug_info" : "1310",
      "begin_48" : 0,
      "top" : "1310_0,1310_1",
      "begin_101" : 0,
      "begin_53" : 0,
      "begin_49" : 0,
      "begin_54" : 0,
      "begin_55" : 0,
      "begin_102" : 0,
      "begin_60" : 0,
      "begin_56" : 0,
      "begin_103" : 0,
      "begin_57" : 0,
      "begin_61" : 0,
      "begin_62" : 0,
      "begin_58" : 0
    },
    {
      "top" : "1316",
      "use_fractional_scale_factors" : false,
      "weights" : {

      },
      "fractional_scaling_factor_y" : 1,
      "type" : "upsample",
      "scaling_factor_x" : 2,
      "mode" : 0,
      "align_corners" : 0,
      "bottom" : "1310_0",
      "debug_info" : "1316",
      "fractional_scaling_factor_x" : 1,
      "is_legacy_mode" : 1,
      "name" : "1316",
      "scaling_factor_y" : 2
    },
    {
      "bottom" : "1269_1,1316",
      "alpha" : 1,
      "operation" : 1,
      "weights" : {

      },
      "fused_relu" : 0,
      "debug_info" : "input.345",
      "top" : "input.345",
      "type" : "elementwise",
      "name" : "input.345",
      "beta" : 0
    },
    {
      "bottom" : "1271_1,1310_1",
      "alpha" : 1,
      "operation" : 1,
      "weights" : {

      },
      "fused_relu" : 0,
      "debug_info" : "input.349",
      "top" : "input.349",
      "type" : "elementwise",
      "name" : "input.349",
      "beta" : 0
    },
    {
      "pad_r" : 1,
      "fused_relu" : 0,
      "fused_tanh" : 0,
      "debug_info" : "input.353",
      "pad_fill_mode" : 0,
      "pad_b" : 1,
      "pad_l" : 1,
      "top" : "input.353",
      "blob_weights" : 235,
      "K" : 20,
      "blob_biases" : 233,
      "name" : "input.353",
      "has_batch_norm" : 0,
      "type" : "convolution",
      "n_groups" : 20,
      "pad_t" : 1,
      "has_biases" : 1,
      "C" : 20,
      "bottom" : "input.345",
      "weights" : {

      },
      "Nx" : 3,
      "pad_mode" : 0,
      "pad_value" : 0,
      "Ny" : 3,
      "n_parallel" : 1
    },
    {
      "pad_r" : 1,
      "fused_relu" : 0,
      "fused_tanh" : 0,
      "debug_info" : "input.363",
      "pad_fill_mode" : 0,
      "pad_b" : 1,
      "pad_l" : 1,
      "top" : "input.363",
      "blob_weights" : 239,
      "K" : 40,
      "blob_biases" : 237,
      "name" : "input.363",
      "has_batch_norm" : 0,
      "type" : "convolution",
      "n_groups" : 40,
      "pad_t" : 1,
      "has_biases" : 1,
      "C" : 40,
      "bottom" : "input.349",
      "weights" : {

      },
      "Nx" : 3,
      "pad_mode" : 0,
      "pad_value" : 0,
      "Ny" : 3,
      "n_parallel" : 1
    },
    {
      "pad_r" : 0,
      "debug_info" : "input.355",
      "pad_fill_mode" : 0,
      "pad_b" : 0,
      "pad_l" : 0,
      "size_x" : 72,
      "is_global" : 1,
      "top" : "input.355",
      "top_shape_style" : 0,
      "stride_x" : 1,
      "avg_or_max" : 0,
      "average_count_exclude_padding" : 1,
      "type" : "pool",
      "name" : "input.355",
      "pad_t" : 0,
      "stride_y" : 1,
      "bottom" : "input.353",
      "weights" : {

      },
      "pad_mode" : 2,
      "size_y" : 96,
      "pad_value" : 0
    },
    {
      "pad_r" : 0,
      "fused_relu" : 1,
      "fused_tanh" : 0,
      "debug_info" : "input.357",
      "pad_fill_mode" : 0,
      "pad_b" : 0,
      "pad_l" : 0,
      "top" : "input.359",
      "blob_weights" : 243,
      "K" : 20,
      "blob_biases" : 241,
      "name" : "input.357",
      "has_batch_norm" : 0,
      "type" : "convolution",
      "n_groups" : 1,
      "pad_t" : 0,
      "has_biases" : 1,
      "C" : 5,
      "bottom" : "input.355",
      "weights" : {

      },
      "Nx" : 1,
      "pad_mode" : 0,
      "pad_value" : 0,
      "Ny" : 1,
      "n_parallel" : 1
    },
    {
      "pad_r" : 0,
      "fused_relu" : 0,
      "fused_tanh" : 0,
      "debug_info" : "input.361",
      "pad_fill_mode" : 0,
      "pad_b" : 0,
      "pad_l" : 0,
      "top" : "input.361",
      "blob_weights" : 247,
      "K" : 5,
      "blob_biases" : 245,
      "name" : "input.361",
      "has_batch_norm" : 0,
      "type" : "convolution",
      "n_groups" : 1,
      "pad_t" : 0,
      "has_biases" : 1,
      "C" : 20,
      "bottom" : "input.359",
      "weights" : {

      },
      "Nx" : 1,
      "pad_mode" : 0,
      "pad_value" : 0,
      "Ny" : 1,
      "n_parallel" : 1
    },
    {
      "bottom" : "input.361",
      "weights" : {

      },
      "mode" : 3,
      "debug_info" : "out.21",
      "top" : "out.21",
      "type" : "activation",
      "name" : "out.21"
    },
    {
      "bottom" : "input.353,out.21",
      "alpha" : 1,
      "operation" : 1,
      "weights" : {

      },
      "fused_relu" : 0,
      "debug_info" : "s2.21",
      "top" : "s2.21",
      "type" : "elementwise",
      "name" : "s2.21",
      "beta" : 0
    },
    {
      "pad_r" : 0,
      "debug_info" : "input.365",
      "pad_fill_mode" : 0,
      "pad_b" : 0,
      "pad_l" : 0,
      "size_x" : 36,
      "is_global" : 1,
      "top" : "input.365",
      "top_shape_style" : 0,
      "stride_x" : 1,
      "avg_or_max" : 0,
      "average_count_exclude_padding" : 1,
      "type" : "pool",
      "name" : "input.365",
      "pad_t" : 0,
      "stride_y" : 1,
      "bottom" : "input.363",
      "weights" : {

      },
      "pad_mode" : 2,
      "size_y" : 48,
      "pad_value" : 0
    },
    {
      "pad_r" : 0,
      "fused_relu" : 1,
      "fused_tanh" : 0,
      "debug_info" : "input.367",
      "pad_fill_mode" : 0,
      "pad_b" : 0,
      "pad_l" : 0,
      "top" : "input.369",
      "blob_weights" : 251,
      "K" : 40,
      "blob_biases" : 249,
      "name" : "input.367",
      "has_batch_norm" : 0,
      "type" : "convolution",
      "n_groups" : 1,
      "pad_t" : 0,
      "has_biases" : 1,
      "C" : 10,
      "bottom" : "input.365",
      "weights" : {

      },
      "Nx" : 1,
      "pad_mode" : 0,
      "pad_value" : 0,
      "Ny" : 1,
      "n_parallel" : 1
    },
    {
      "pad_r" : 0,
      "fused_relu" : 0,
      "fused_tanh" : 0,
      "debug_info" : "input.371",
      "pad_fill_mode" : 0,
      "pad_b" : 0,
      "pad_l" : 0,
      "top" : "input.371",
      "blob_weights" : 255,
      "K" : 10,
      "blob_biases" : 253,
      "name" : "input.371",
      "has_batch_norm" : 0,
      "type" : "convolution",
      "n_groups" : 1,
      "pad_t" : 0,
      "has_biases" : 1,
      "C" : 40,
      "bottom" : "input.369",
      "weights" : {

      },
      "Nx" : 1,
      "pad_mode" : 0,
      "pad_value" : 0,
      "Ny" : 1,
      "n_parallel" : 1
    },
    {
      "bottom" : "input.371",
      "weights" : {

      },
      "mode" : 3,
      "debug_info" : "out.23",
      "top" : "out.23",
      "type" : "activation",
      "name" : "out.23"
    },
    {
      "bottom" : "input.363,out.23",
      "alpha" : 1,
      "operation" : 1,
      "weights" : {

      },
      "fused_relu" : 0,
      "debug_info" : "s2.23",
      "top" : "s2.23",
      "type" : "elementwise",
      "name" : "s2.23",
      "beta" : 0
    },
    {
      "bottom" : "1269_0,s2.21",
      "weights" : {

      },
      "interleave" : true,
      "nd_mode" : true,
      "axis" : 1,
      "debug_info" : "y.17",
      "top" : "y.17",
      "type" : "general_concat",
      "name" : "y.17"
    },
    {
      "bottom" : "1271_0,s2.23",
      "weights" : {

      },
      "interleave" : true,
      "nd_mode" : true,
      "axis" : 1,
      "debug_info" : "input.373",
      "top" : "input.373",
      "type" : "general_concat",
      "name" : "input.373"
    },
    {
      "bottom" : "y.17,y.17",
      "alpha" : 1,
      "operation" : 0,
      "weights" : {

      },
      "fused_relu" : 0,
      "debug_info" : "y.19",
      "top" : "y.19",
      "type" : "elementwise",
      "name" : "y.19",
      "beta" : 0
    },
    {
      "pad_r" : 0,
      "fused_relu" : 0,
      "fused_tanh" : 0,
      "debug_info" : "input.377",
      "pad_fill_mode" : 0,
      "pad_b" : 0,
      "pad_l" : 0,
      "top" : "input.377",
      "blob_weights" : 259,
      "K" : 80,
      "blob_biases" : 257,
      "name" : "input.377",
      "has_batch_norm" : 0,
      "type" : "convolution",
      "n_groups" : 1,
      "pad_t" : 0,
      "has_biases" : 1,
      "C" : 40,
      "bottom" : "input.373",
      "weights" : {

      },
      "Nx" : 1,
      "pad_mode" : 0,
      "pad_value" : 0,
      "Ny" : 1,
      "n_parallel" : 1
    },
    {
      "top" : "1449",
      "use_fractional_scale_factors" : false,
      "weights" : {

      },
      "fractional_scaling_factor_y" : 1,
      "type" : "upsample",
      "scaling_factor_x" : 2,
      "mode" : 0,
      "align_corners" : 0,
      "bottom" : "input.377",
      "debug_info" : "1449",
      "fractional_scaling_factor_x" : 1,
      "is_legacy_mode" : 1,
      "name" : "1449",
      "scaling_factor_y" : 2
    },
    {
      "weights" : {

      },
      "debug_info" : "1450",
      "top" : "1450",
      "type" : "copy",
      "name" : "1450",
      "bottom" : "1449"
    },
    {
      "bottom" : "y.19,1450",
      "alpha" : 1,
      "operation" : 0,
      "weights" : {

      },
      "fused_relu" : 0,
      "debug_info" : "input.379",
      "top" : "input.379",
      "type" : "elementwise",
      "name" : "input.379",
      "beta" : 0
    },
    {
      "bottom" : "input.379",
      "weights" : {

      },
      "mode" : 0,
      "debug_info" : "s.37",
      "top" : "s.37",
      "type" : "activation",
      "name" : "s.37"
    },
    {
      "pad_r" : 1,
      "fused_relu" : 0,
      "fused_tanh" : 0,
      "debug_info" : "input.383",
      "pad_fill_mode" : 0,
      "pad_b" : 1,
      "pad_l" : 1,
      "top" : "input.383",
      "blob_weights" : 263,
      "K" : 40,
      "blob_biases" : 261,
      "stride_x" : 2,
      "name" : "input.383",
      "has_batch_norm" : 0,
      "type" : "convolution",
      "n_groups" : 40,
      "pad_t" : 1,
      "stride_y" : 2,
      "has_biases" : 1,
      "C" : 40,
      "bottom" : "input.379",
      "weights" : {

      },
      "Nx" : 3,
      "pad_mode" : 0,
      "pad_value" : 0,
      "Ny" : 3,
      "n_parallel" : 1
    },
    {
      "pad_r" : 0,
      "fused_relu" : 0,
      "fused_tanh" : 0,
      "debug_info" : "y.21",
      "pad_fill_mode" : 0,
      "pad_b" : 0,
      "pad_l" : 0,
      "top" : "y.21",
      "blob_weights" : 267,
      "K" : 40,
      "blob_biases" : 265,
      "name" : "y.21",
      "has_batch_norm" : 0,
      "type" : "convolution",
      "n_groups" : 1,
      "pad_t" : 0,
      "has_biases" : 1,
      "C" : 80,
      "bottom" : "input.383",
      "weights" : {

      },
      "Nx" : 1,
      "pad_mode" : 0,
      "pad_value" : 0,
      "Ny" : 1,
      "n_parallel" : 1
    },
    {
      "weights" : {

      },
      "debug_info" : "1507",
      "top" : "1507",
      "type" : "copy",
      "name" : "1507",
      "bottom" : "y.21"
    },
    {
      "bottom" : "y.21,1507",
      "alpha" : 1,
      "operation" : 0,
      "weights" : {

      },
      "fused_relu" : 0,
      "debug_info" : "y.23",
      "top" : "y.23",
      "type" : "elementwise",
      "name" : "y.23",
      "beta" : 0
    },
    {
      "weights" : {

      },
      "debug_info" : "1509",
      "top" : "1509",
      "type" : "copy",
      "name" : "1509",
      "bottom" : "input.373"
    },
    {
      "bottom" : "y.23,1509",
      "alpha" : 1,
      "operation" : 0,
      "weights" : {

      },
      "fused_relu" : 0,
      "debug_info" : "input.393",
      "top" : "input.393",
      "type" : "elementwise",
      "name" : "input.393",
      "beta" : 0
    },
    {
      "bottom" : "input.393",
      "weights" : {

      },
      "mode" : 0,
      "debug_info" : "input.395",
      "top" : "input.395",
      "type" : "activation",
      "name" : "input.395"
    },
    {
      "pad_r" : 1,
      "fused_relu" : 0,
      "fused_tanh" : 0,
      "debug_info" : "input.399",
      "pad_fill_mode" : 0,
      "pad_b" : 1,
      "pad_l" : 1,
      "top" : "input.399",
      "blob_weights" : 271,
      "K" : 80,
      "blob_biases" : 269,
      "stride_x" : 2,
      "name" : "input.399",
      "has_batch_norm" : 0,
      "type" : "convolution",
      "n_groups" : 80,
      "pad_t" : 1,
      "stride_y" : 2,
      "has_biases" : 1,
      "C" : 80,
      "bottom" : "input.395",
      "weights" : {

      },
      "Nx" : 3,
      "pad_mode" : 0,
      "pad_value" : 0,
      "Ny" : 3,
      "n_parallel" : 1
    },
    {
      "pad_r" : 0,
      "fused_relu" : 1,
      "fused_tanh" : 0,
      "debug_info" : "input.403",
      "pad_fill_mode" : 0,
      "pad_b" : 0,
      "pad_l" : 0,
      "top" : "s.39",
      "blob_weights" : 275,
      "K" : 80,
      "blob_biases" : 273,
      "name" : "input.403",
      "has_batch_norm" : 0,
      "type" : "convolution",
      "n_groups" : 1,
      "pad_t" : 0,
      "has_biases" : 1,
      "C" : 160,
      "bottom" : "input.399",
      "weights" : {

      },
      "Nx" : 1,
      "pad_mode" : 0,
      "pad_value" : 0,
      "Ny" : 1,
      "n_parallel" : 1
    },
    {
      "begin_104" : 0,
      "begin_63" : 0,
      "begin_59" : 0,
      "begin_64" : 0,
      "begin_105" : 0,
      "begin_65" : 0,
      "begin_0" : 0,
      "begin_70" : 0,
      "begin_66" : 0,
      "begin_106" : 0,
      "begin_110" : 0,
      "begin_2" : 0,
      "begin_71" : 0,
      "begin_67" : 0,
      "begin_68" : 0,
      "begin_107" : 0,
      "begin_111" : 0,
      "begin_4" : 0,
      "begin_72" : 0,
      "begin_73" : 0,
      "begin_69" : 0,
      "begin_6" : 0,
      "begin_74" : 0,
      "begin_108" : 0,
      "type" : "split_nd",
      "begin_8" : 0,
      "begin_112" : 0,
      "begin_75" : 0,
      "begin_10" : 0,
      "begin_80" : 0,
      "begin_76" : 0,
      "begin_109" : 0,
      "begin_113" : 0,
      "begin_11" : 0,
      "nd_axis" : 1,
      "begin_81" : 0,
      "begin_77" : 0,
      "begin_114" : 0,
      "begin_12" : 0,
      "begin_78" : 0,
      "begin_82" : 0,
      "begin_13" : 0,
      "begin_83" : 0,
      "begin_79" : 0,
      "begin_115" : 0,
      "begin_14" : 0,
      "begin_84" : 0,
      "begin_15" : 0,
      "begin_85" : 0,
      "begin_116" : 0,
      "begin_120" : 0,
      "begin_20" : 0,
      "begin_86" : 0,
      "begin_16" : 0,
      "begin_90" : 0,
      "begin_21" : 0,
      "begin_91" : 0,
      "begin_87" : 0,
      "begin_17" : 0,
      "begin_117" : 0,
      "begin_121" : 0,
      "begin_18" : 0,
      "begin_92" : 0,
      "begin_88" : 0,
      "begin_22" : 0,
      "begin_23" : 0,
      "begin_89" : 0,
      "begin_19" : 0,
      "begin_93" : 0,
      "begin_118" : 0,
      "begin_122" : 0,
      "begin_24" : 0,
      "begin_94" : 0,
      "begin_25" : 0,
      "begin_95" : 0,
      "begin_119" : 0,
      "begin_123" : 0,
      "begin_30" : 0,
      "begin_26" : 0,
      "begin_96" : 0,
      "begin_124" : 0,
      "begin_31" : 0,
      "begin_97" : 0,
      "begin_27" : 0,
      "begin_28" : 0,
      "begin_98" : 0,
      "begin_32" : 0,
      "begin_125" : 0,
      "begin_33" : 0,
      "begin_29" : 0,
      "begin_99" : 0,
      "begin_1" : 0,
      "weights" : {

      },
      "begin_34" : 0,
      "bottom" : "s.37",
      "begin_3" : 0,
      "begin_126" : 0,
      "begin_35" : 0,
      "begin_5" : 0,
      "begin_36" : 0,
      "begin_40" : 0,
      "begin_127" : 0,
      "name" : "1588",
      "begin_41" : 0,
      "begin_37" : 0,
      "begin_7" : 0,
      "begin_42" : 0,
      "begin_38" : 0,
      "begin_9" : 0,
      "begin_39" : 0,
      "begin_43" : 0,
      "begin_44" : 0,
      "begin_45" : 0,
      "begin_50" : 0,
      "begin_46" : 0,
      "begin_51" : 0,
      "begin_47" : 0,
      "begin_100" : 0,
      "begin_52" : 0,
      "debug_info" : "1588",
      "begin_48" : 0,
      "top" : "1588_0,1588_1",
      "begin_101" : 0,
      "begin_53" : 0,
      "begin_49" : 0,
      "begin_54" : 0,
      "begin_55" : 0,
      "begin_102" : 0,
      "begin_60" : 0,
      "begin_56" : 0,
      "begin_103" : 0,
      "begin_57" : 0,
      "begin_61" : 0,
      "begin_62" : 0,
      "begin_58" : 0
    },
    {
      "begin_104" : 0,
      "begin_63" : 0,
      "begin_59" : 0,
      "begin_64" : 0,
      "begin_105" : 0,
      "begin_65" : 0,
      "begin_0" : 0,
      "begin_70" : 0,
      "begin_66" : 0,
      "begin_106" : 0,
      "begin_110" : 0,
      "begin_2" : 0,
      "begin_71" : 0,
      "begin_67" : 0,
      "begin_68" : 0,
      "begin_107" : 0,
      "begin_111" : 0,
      "begin_4" : 0,
      "begin_72" : 0,
      "begin_73" : 0,
      "begin_69" : 0,
      "begin_6" : 0,
      "begin_74" : 0,
      "begin_108" : 0,
      "type" : "split_nd",
      "begin_8" : 0,
      "begin_112" : 0,
      "begin_75" : 0,
      "begin_10" : 0,
      "begin_80" : 0,
      "begin_76" : 0,
      "begin_109" : 0,
      "begin_113" : 0,
      "begin_11" : 0,
      "nd_axis" : 1,
      "begin_81" : 0,
      "begin_77" : 0,
      "begin_114" : 0,
      "begin_12" : 0,
      "begin_78" : 0,
      "begin_82" : 0,
      "begin_13" : 0,
      "begin_83" : 0,
      "begin_79" : 0,
      "begin_115" : 0,
      "begin_14" : 0,
      "begin_84" : 0,
      "begin_15" : 0,
      "begin_85" : 0,
      "begin_116" : 0,
      "begin_120" : 0,
      "begin_20" : 0,
      "begin_86" : 0,
      "begin_16" : 0,
      "begin_90" : 0,
      "begin_21" : 0,
      "begin_91" : 0,
      "begin_87" : 0,
      "begin_17" : 0,
      "begin_117" : 0,
      "begin_121" : 0,
      "begin_18" : 0,
      "begin_92" : 0,
      "begin_88" : 0,
      "begin_22" : 0,
      "begin_23" : 0,
      "begin_89" : 0,
      "begin_19" : 0,
      "begin_93" : 0,
      "begin_118" : 0,
      "begin_122" : 0,
      "begin_24" : 0,
      "begin_94" : 0,
      "begin_25" : 0,
      "begin_95" : 0,
      "begin_119" : 0,
      "begin_123" : 0,
      "begin_30" : 0,
      "begin_26" : 0,
      "begin_96" : 0,
      "begin_124" : 0,
      "begin_31" : 0,
      "begin_97" : 0,
      "begin_27" : 0,
      "begin_28" : 0,
      "begin_98" : 0,
      "begin_32" : 0,
      "begin_125" : 0,
      "begin_33" : 0,
      "begin_29" : 0,
      "begin_99" : 0,
      "begin_1" : 0,
      "weights" : {

      },
      "begin_34" : 0,
      "bottom" : "input.395",
      "begin_3" : 0,
      "begin_126" : 0,
      "begin_35" : 0,
      "begin_5" : 0,
      "begin_36" : 0,
      "begin_40" : 0,
      "begin_127" : 0,
      "name" : "1590",
      "begin_41" : 0,
      "begin_37" : 0,
      "begin_7" : 0,
      "begin_42" : 0,
      "begin_38" : 0,
      "begin_9" : 0,
      "begin_39" : 0,
      "begin_43" : 0,
      "begin_44" : 0,
      "begin_45" : 0,
      "begin_50" : 0,
      "begin_46" : 0,
      "begin_51" : 0,
      "begin_47" : 0,
      "begin_100" : 0,
      "begin_52" : 0,
      "debug_info" : "1590",
      "begin_48" : 0,
      "top" : "1590_0,1590_1",
      "begin_101" : 0,
      "begin_53" : 0,
      "begin_49" : 0,
      "begin_54" : 0,
      "begin_55" : 0,
      "begin_102" : 0,
      "begin_60" : 0,
      "begin_56" : 0,
      "begin_103" : 0,
      "begin_57" : 0,
      "begin_61" : 0,
      "begin_62" : 0,
      "begin_58" : 0
    },
    {
      "begin_104" : 0,
      "begin_63" : 0,
      "begin_59" : 0,
      "begin_64" : 0,
      "begin_105" : 0,
      "begin_65" : 0,
      "begin_0" : 0,
      "begin_70" : 0,
      "begin_66" : 0,
      "begin_106" : 0,
      "begin_110" : 0,
      "begin_2" : 0,
      "begin_71" : 0,
      "begin_67" : 0,
      "begin_68" : 0,
      "begin_107" : 0,
      "begin_111" : 0,
      "begin_4" : 0,
      "begin_72" : 0,
      "begin_73" : 0,
      "begin_69" : 0,
      "begin_6" : 0,
      "begin_74" : 0,
      "begin_108" : 0,
      "type" : "split_nd",
      "begin_8" : 0,
      "begin_112" : 0,
      "begin_75" : 0,
      "begin_10" : 0,
      "begin_80" : 0,
      "begin_76" : 0,
      "begin_109" : 0,
      "begin_113" : 0,
      "begin_11" : 0,
      "nd_axis" : 1,
      "begin_81" : 0,
      "begin_77" : 0,
      "begin_114" : 0,
      "begin_12" : 0,
      "begin_78" : 0,
      "begin_82" : 0,
      "begin_13" : 0,
      "begin_83" : 0,
      "begin_79" : 0,
      "begin_115" : 0,
      "begin_14" : 0,
      "begin_84" : 0,
      "begin_15" : 0,
      "begin_85" : 0,
      "begin_116" : 0,
      "begin_120" : 0,
      "begin_20" : 0,
      "begin_86" : 0,
      "begin_16" : 0,
      "begin_90" : 0,
      "begin_21" : 0,
      "begin_91" : 0,
      "begin_87" : 0,
      "begin_17" : 0,
      "begin_117" : 0,
      "begin_121" : 0,
      "begin_18" : 0,
      "begin_92" : 0,
      "begin_88" : 0,
      "begin_22" : 0,
      "begin_23" : 0,
      "begin_89" : 0,
      "begin_19" : 0,
      "begin_93" : 0,
      "begin_118" : 0,
      "begin_122" : 0,
      "begin_24" : 0,
      "begin_94" : 0,
      "begin_25" : 0,
      "begin_95" : 0,
      "begin_119" : 0,
      "begin_123" : 0,
      "begin_30" : 0,
      "begin_26" : 0,
      "begin_96" : 0,
      "begin_124" : 0,
      "begin_31" : 0,
      "begin_97" : 0,
      "begin_27" : 0,
      "begin_28" : 0,
      "begin_98" : 0,
      "begin_32" : 0,
      "begin_125" : 0,
      "begin_33" : 0,
      "begin_29" : 0,
      "begin_99" : 0,
      "begin_1" : 0,
      "weights" : {

      },
      "begin_34" : 0,
      "bottom" : "s.39",
      "begin_3" : 0,
      "begin_126" : 0,
      "begin_35" : 0,
      "begin_5" : 0,
      "begin_36" : 0,
      "begin_40" : 0,
      "begin_127" : 0,
      "name" : "1592",
      "begin_41" : 0,
      "begin_37" : 0,
      "begin_7" : 0,
      "begin_42" : 0,
      "begin_38" : 0,
      "begin_9" : 0,
      "begin_39" : 0,
      "begin_43" : 0,
      "begin_44" : 0,
      "begin_45" : 0,
      "begin_50" : 0,
      "begin_46" : 0,
      "begin_51" : 0,
      "begin_47" : 0,
      "begin_100" : 0,
      "begin_52" : 0,
      "debug_info" : "1592",
      "begin_48" : 0,
      "top" : "1592_0,1592_1",
      "begin_101" : 0,
      "begin_53" : 0,
      "begin_49" : 0,
      "begin_54" : 0,
      "begin_55" : 0,
      "begin_102" : 0,
      "begin_60" : 0,
      "begin_56" : 0,
      "begin_103" : 0,
      "begin_57" : 0,
      "begin_61" : 0,
      "begin_62" : 0,
      "begin_58" : 0
    },
    {
      "pad_r" : 0,
      "debug_info" : "1599",
      "pad_fill_mode" : 0,
      "pad_b" : 0,
      "pad_l" : 0,
      "size_x" : 4,
      "top" : "1599",
      "top_shape_style" : 0,
      "stride_x" : 4,
      "avg_or_max" : 0,
      "average_count_exclude_padding" : 0,
      "type" : "pool",
      "name" : "1599",
      "pad_t" : 0,
      "stride_y" : 4,
      "bottom" : "1588_1",
      "weights" : {

      },
      "pad_mode" : 2,
      "size_y" : 4,
      "pad_value" : 0
    },
    {
      "pad_r" : 0,
      "debug_info" : "1601",
      "pad_fill_mode" : 0,
      "pad_b" : 0,
      "pad_l" : 0,
      "size_x" : 2,
      "top" : "1601",
      "top_shape_style" : 0,
      "stride_x" : 2,
      "avg_or_max" : 0,
      "average_count_exclude_padding" : 0,
      "type" : "pool",
      "name" : "1601",
      "pad_t" : 0,
      "stride_y" : 2,
      "bottom" : "1590_1",
      "weights" : {

      },
      "pad_mode" : 2,
      "size_y" : 2,
      "pad_value" : 0
    },
    {
      "weights" : {

      },
      "debug_info" : "input.409",
      "top" : "input.409",
      "type" : "concat",
      "name" : "input.409",
      "bottom" : "1599,1601,1592_1"
    },
    {
      "pad_r" : 0,
      "fused_relu" : 1,
      "fused_tanh" : 0,
      "debug_info" : "input.413",
      "pad_fill_mode" : 0,
      "pad_b" : 0,
      "pad_l" : 0,
      "top" : "input.415",
      "blob_weights" : 279,
      "K" : 140,
      "blob_biases" : 277,
      "name" : "input.413",
      "has_batch_norm" : 0,
      "type" : "convolution",
      "n_groups" : 1,
      "pad_t" : 0,
      "has_biases" : 1,
      "C" : 17,
      "bottom" : "input.409",
      "weights" : {

      },
      "Nx" : 1,
      "pad_mode" : 0,
      "pad_value" : 0,
      "Ny" : 1,
      "n_parallel" : 1
    },
    {
      "pad_r" : 0,
      "fused_relu" : 0,
      "fused_tanh" : 0,
      "debug_info" : "input.419",
      "pad_fill_mode" : 0,
      "pad_b" : 0,
      "pad_l" : 0,
      "top" : "input.419",
      "blob_weights" : 283,
      "K" : 17,
      "blob_biases" : 281,
      "name" : "input.419",
      "has_batch_norm" : 0,
      "type" : "convolution",
      "n_groups" : 1,
      "pad_t" : 0,
      "has_biases" : 1,
      "C" : 140,
      "bottom" : "input.415",
      "weights" : {

      },
      "Nx" : 1,
      "pad_mode" : 0,
      "pad_value" : 0,
      "Ny" : 1,
      "n_parallel" : 1
    },
    {
      "bottom" : "input.419",
      "weights" : {

      },
      "mode" : 3,
      "debug_info" : "1631",
      "top" : "1631",
      "type" : "activation",
      "name" : "1631"
    },
    {
      "begin_104" : 0,
      "begin_63" : 0,
      "begin_59" : 0,
      "begin_64" : 0,
      "begin_105" : 0,
      "begin_65" : 0,
      "begin_0" : 20,
      "begin_70" : 0,
      "begin_66" : 0,
      "begin_106" : 0,
      "begin_110" : 0,
      "begin_2" : 80,
      "begin_71" : 0,
      "begin_67" : 0,
      "begin_68" : 0,
      "begin_107" : 0,
      "begin_111" : 0,
      "begin_4" : 0,
      "begin_72" : 0,
      "begin_73" : 0,
      "begin_69" : 0,
      "begin_6" : 0,
      "begin_74" : 0,
      "begin_108" : 0,
      "type" : "split_nd",
      "begin_8" : 0,
      "begin_112" : 0,
      "begin_75" : 0,
      "begin_10" : 0,
      "begin_80" : 0,
      "begin_76" : 0,
      "begin_109" : 0,
      "begin_113" : 0,
      "begin_11" : 0,
      "nd_axis" : 1,
      "begin_81" : 0,
      "begin_77" : 0,
      "begin_114" : 0,
      "begin_12" : 0,
      "begin_78" : 0,
      "begin_82" : 0,
      "begin_13" : 0,
      "begin_83" : 0,
      "begin_79" : 0,
      "begin_115" : 0,
      "begin_14" : 0,
      "begin_84" : 0,
      "begin_15" : 0,
      "begin_85" : 0,
      "num_splits" : 3,
      "begin_116" : 0,
      "begin_120" : 0,
      "begin_20" : 0,
      "begin_86" : 0,
      "begin_16" : 0,
      "begin_90" : 0,
      "begin_21" : 0,
      "begin_91" : 0,
      "begin_87" : 0,
      "begin_17" : 0,
      "begin_117" : 0,
      "begin_121" : 0,
      "begin_18" : 0,
      "begin_92" : 0,
      "begin_88" : 0,
      "begin_22" : 0,
      "begin_23" : 0,
      "begin_89" : 0,
      "begin_19" : 0,
      "begin_93" : 0,
      "begin_118" : 0,
      "begin_122" : 0,
      "begin_24" : 0,
      "begin_94" : 0,
      "begin_25" : 0,
      "begin_95" : 0,
      "begin_119" : 0,
      "begin_123" : 0,
      "begin_30" : 0,
      "begin_26" : 0,
      "begin_96" : 0,
      "begin_124" : 0,
      "begin_31" : 0,
      "begin_97" : 0,
      "begin_27" : 0,
      "begin_28" : 0,
      "begin_98" : 0,
      "begin_32" : 0,
      "begin_125" : 0,
      "begin_33" : 0,
      "begin_29" : 0,
      "begin_99" : 0,
      "begin_1" : 40,
      "weights" : {

      },
      "begin_34" : 0,
      "bottom" : "1631",
      "begin_3" : 0,
      "begin_126" : 0,
      "begin_35" : 0,
      "begin_5" : 0,
      "begin_36" : 0,
      "begin_40" : 0,
      "begin_127" : 0,
      "name" : "1633",
      "begin_41" : 0,
      "begin_37" : 0,
      "begin_7" : 0,
      "begin_42" : 0,
      "begin_38" : 0,
      "begin_9" : 0,
      "begin_39" : 0,
      "begin_43" : 0,
      "begin_44" : 0,
      "begin_45" : 0,
      "begin_50" : 0,
      "begin_46" : 0,
      "begin_51" : 0,
      "begin_47" : 0,
      "begin_100" : 0,
      "begin_52" : 0,
      "debug_info" : "1633",
      "begin_48" : 0,
      "top" : "1633_0,1633_1,1633_2",
      "begin_101" : 0,
      "begin_53" : 0,
      "begin_49" : 0,
      "begin_54" : 0,
      "begin_55" : 0,
      "begin_102" : 0,
      "begin_60" : 0,
      "begin_56" : 0,
      "begin_103" : 0,
      "begin_57" : 0,
      "begin_61" : 0,
      "begin_62" : 0,
      "begin_58" : 0
    },
    {
      "top" : "1640",
      "use_fractional_scale_factors" : false,
      "weights" : {

      },
      "fractional_scaling_factor_y" : 1,
      "type" : "upsample",
      "scaling_factor_x" : 4,
      "mode" : 0,
      "align_corners" : 0,
      "bottom" : "1633_0",
      "debug_info" : "1640",
      "fractional_scaling_factor_x" : 1,
      "is_legacy_mode" : 1,
      "name" : "1640",
      "scaling_factor_y" : 4
    },
    {
      "bottom" : "1588_1,1640",
      "alpha" : 1,
      "operation" : 1,
      "weights" : {

      },
      "fused_relu" : 0,
      "debug_info" : "input.427",
      "top" : "input.427",
      "type" : "elementwise",
      "name" : "input.427",
      "beta" : 0
    },
    {
      "top" : "1645",
      "use_fractional_scale_factors" : false,
      "weights" : {

      },
      "fractional_scaling_factor_y" : 1,
      "type" : "upsample",
      "scaling_factor_x" : 2,
      "mode" : 0,
      "align_corners" : 0,
      "bottom" : "1633_1",
      "debug_info" : "1645",
      "fractional_scaling_factor_x" : 1,
      "is_legacy_mode" : 1,
      "name" : "1645",
      "scaling_factor_y" : 2
    },
    {
      "bottom" : "1590_1,1645",
      "alpha" : 1,
      "operation" : 1,
      "weights" : {

      },
      "fused_relu" : 0,
      "debug_info" : "input.431",
      "top" : "input.431",
      "type" : "elementwise",
      "name" : "input.431",
      "beta" : 0
    },
    {
      "bottom" : "1592_1,1633_2",
      "alpha" : 1,
      "operation" : 1,
      "weights" : {

      },
      "fused_relu" : 0,
      "debug_info" : "input.435",
      "top" : "input.435",
      "type" : "elementwise",
      "name" : "input.435",
      "beta" : 0
    },
    {
      "pad_r" : 1,
      "fused_relu" : 0,
      "fused_tanh" : 0,
      "debug_info" : "input.439",
      "pad_fill_mode" : 0,
      "pad_b" : 1,
      "pad_l" : 1,
      "top" : "input.439",
      "blob_weights" : 287,
      "K" : 20,
…
      },
      "input.2549" : {
        "k" : 40,
        "w" : 36,
        "n" : 1,
        "_rank" : 4,
        "h" : 48
      },
      "10484_0" : {
        "k" : 20,
        "w" : 72,
        "n" : 1,
        "_rank" : 4,
        "h" : 96
      },
      "input.1239" : {
        "k" : 20,
        "w" : 72,
        "n" : 1,
        "_rank" : 4,
        "h" : 96
      },
      "out.147" : {
        "k" : 40,
        "w" : 1,
        "n" : 1,
        "_rank" : 4,
        "h" : 1
      },
      "s2" : {
        "k" : 160,
        "w" : 9,
        "n" : 1,
        "_rank" : 4,
        "h" : 12
      },
      "input.247" : {
        "k" : 20,
        "w" : 1,
        "n" : 1,
        "_rank" : 4,
        "h" : 1
      },
      "input.2089" : {
        "k" : 160,
        "w" : 1,
        "n" : 1,
        "_rank" : 4,
        "h" : 1
      },
      "1588_0" : {
        "k" : 20,
        "w" : 72,
        "n" : 1,
        "_rank" : 4,
        "h" : 96
      },
      "10179_1" : {
        "k" : 20,
        "w" : 72,
        "n" : 1,
        "_rank" : 4,
        "h" : 96
      },
      "input.2449" : {
        "k" : 20,
        "w" : 72,
        "n" : 1,
        "_rank" : 4,
        "h" : 96
      },
      "s2.51" : {
        "k" : 40,
        "w" : 36,
        "n" : 1,
        "_rank" : 4,
        "h" : 48
      },
      "input.1139" : {
        "k" : 160,
        "w" : 18,
        "n" : 1,
        "_rank" : 4,
        "h" : 24
      },
      "input.2809" : {
        "k" : 40,
        "w" : 1,
        "n" : 1,
        "_rank" : 4,
        "h" : 1
      },
      "y.229" : {
        "k" : 320,
        "w" : 9,
        "n" : 1,
        "_rank" : 4,
        "h" : 12
      },
      "s2.147" : {
        "k" : 40,
        "w" : 36,
        "n" : 1,
        "_rank" : 4,
        "h" : 48
      },
      "out.117" : {
        "k" : 40,
        "w" : 1,
        "n" : 1,
        "_rank" : 4,
        "h" : 1
      },
      "input.1457" : {
        "k" : 40,
        "w" : 1,
        "n" : 1,
        "_rank" : 4,
        "h" : 1
      },
      "input.929" : {
        "k" : 20,
        "w" : 1,
        "n" : 1,
        "_rank" : 4,
        "h" : 1
      },
      "input.849" : {
        "k" : 40,
        "w" : 36,
        "n" : 1,
        "_rank" : 4,
        "h" : 48
      },
      "input.65" : {
        "k" : 60,
        "w" : 36,
        "n" : 1,
        "_rank" : 4,
        "h" : 48
      },
      "1271_0" : {
        "k" : 40,
        "w" : 36,
        "n" : 1,
        "_rank" : 4,
        "h" : 48
      },
      "input.1039" : {
        "k" : 20,
        "w" : 72,
        "n" : 1,
        "_rank" : 4,
        "h" : 96
      },
      "input.2709" : {
        "k" : 20,
        "w" : 72,
        "n" : 1,
        "_rank" : 4,
        "h" : 96
      },
      "1588_1" : {
        "k" : 20,
        "w" : 72,
        "n" : 1,
        "_rank" : 4,
        "h" : 96
      },
      "s2.53" : {
        "k" : 80,
        "w" : 18,
        "n" : 1,
        "_rank" : 4,
        "h" : 24
      },
      "3114_0" : {
        "k" : 80,
        "w" : 18,
        "n" : 1,
        "_rank" : 4,
        "h" : 24
      },
      "input.2249" : {
        "k" : 40,
        "w" : 18,
        "n" : 1,
        "_rank" : 4,
        "h" : 24
      },
      "input.221" : {
        "k" : 7,
        "w" : 36,
        "n" : 1,
        "_rank" : 4,
        "h" : 48
      },
      "input.2609" : {
        "k" : 40,
        "w" : 18,
        "n" : 1,
        "_rank" : 4,
        "h" : 24
      },
      "input.141" : {
        "k" : 10,
        "w" : 1,
        "n" : 1,
        "_rank" : 4,
        "h" : 1
      },
      "out.77" : {
        "k" : 80,
        "w" : 1,
        "n" : 1,
        "_rank" : 4,
        "h" : 1
      },
      "input.1993" : {
        "k" : 40,
        "w" : 18,
        "n" : 1,
        "_rank" : 4,
        "h" : 24
      },
      "1826_0" : {
        "k" : 20,
        "w" : 72,
        "n" : 1,
        "_rank" : 4,
        "h" : 96
      },
      "10484_1" : {
        "k" : 20,
        "w" : 72,
        "n" : 1,
        "_rank" : 4,
        "h" : 96
      },
      "input.1257" : {
        "k" : 40,
        "w" : 1,
        "n" : 1,
        "_rank" : 4,
        "h" : 1
      },
      "1271_1" : {
        "k" : 40,
        "w" : 36,
        "n" : 1,
        "_rank" : 4,
        "h" : 48
      },
      "6915_0" : {
        "k" : 20,
        "w" : 72,
        "n" : 1,
        "_rank" : 4,
        "h" : 96
      },
      "input.2885" : {
        "k" : 40,
        "w" : 18,
        "n" : 1,
        "_rank" : 4,
        "h" : 24
      },
      "input.2149" : {
        "k" : 40,
        "w" : 36,
        "n" : 1,
        "_rank" : 4,
        "h" : 48
      },
      "input.903" : {
        "k" : 20,
        "w" : 72,
        "n" : 1,
        "_rank" : 4,
        "h" : 96
      },
      "input.2509" : {
        "k" : 40,
        "w" : 36,
        "n" : 1,
        "_rank" : 4,
        "h" : 48
      },
      "4870_0" : {
        "k" : 20,
        "w" : 72,
        "n" : 1,
        "_rank" : 4,
        "h" : 96
      },
      "6394_0" : {
        "k" : 40,
        "w" : 36,
        "n" : 1,
        "_rank" : 4,
        "h" : 48
      },
      "input.743" : {
        "k" : 40,
        "w" : 18,
        "n" : 1,
        "_rank" : 4,
        "h" : 24
      },
      "s2.55" : {
        "k" : 20,
        "w" : 72,
        "n" : 1,
        "_rank" : 4,
        "h" : 96
      },
      "input.2467" : {
        "k" : 20,
        "w" : 1,
        "n" : 1,
        "_rank" : 4,
        "h" : 1
      },
      "input.583" : {
        "k" : 40,
        "w" : 36,
        "n" : 1,
        "_rank" : 4,
        "h" : 48
      },
      "input.2827" : {
        "k" : 40,
        "w" : 1,
        "n" : 1,
        "_rank" : 4,
        "h" : 1
      },
      "10226" : {
        "k" : 300,
        "w" : 9,
        "n" : 1,
        "_rank" : 4,
        "h" : 12
      },
      "3114_1" : {
        "k" : 80,
        "w" : 18,
        "n" : 1,
        "_rank" : 4,
        "h" : 24
      },
      "s2.149" : {
        "k" : 80,
        "w" : 18,
        "n" : 1,
        "_rank" : 4,
        "h" : 24
      },
      "1826_1" : {
        "k" : 20,
        "w" : 72,
        "n" : 1,
        "_rank" : 4,
        "h" : 96
      },
      "input.1835" : {
        "k" : 80,
        "w" : 18,
        "n" : 1,
        "_rank" : 4,
        "h" : 24
      },
      "s.171" : {
        "k" : 40,
        "w" : 72,
        "n" : 1,
        "_rank" : 4,
        "h" : 96
      },
      "input.2049" : {
        "k" : 80,
        "w" : 18,
        "n" : 1,
        "_rank" : 4,
        "h" : 24
      },
      "input.2409" : {
        "k" : 20,
        "w" : 1,
        "n" : 1,
        "_rank" : 4,
        "h" : 1
      },
      "3882" : {
        "k" : 20,
        "w" : 18,
        "n" : 1,
        "_rank" : 4,
        "h" : 24
      },
      "input.1793" : {
        "k" : 40,
        "w" : 18,
        "n" : 1,
        "_rank" : 4,
        "h" : 24
      },
      "input.2367" : {
        "k" : 20,
        "w" : 72,
        "n" : 1,
        "_rank" : 4,
        "h" : 96
      },
      "6915_1" : {
        "k" : 20,
        "w" : 72,
        "n" : 1,
        "_rank" : 4,
        "h" : 96
      },
      "input.1057" : {
        "k" : 40,
        "w" : 1,
        "n" : 1,
        "_rank" : 4,
        "h" : 1
      },
      "input.2727" : {
        "k" : 40,
        "w" : 1,
        "n" : 1,
        "_rank" : 4,
        "h" : 1
      },
      "4870_1" : {
        "k" : 20,
        "w" : 72,
        "n" : 1,
        "_rank" : 4,
        "h" : 96
      },
      "6394_1" : {
        "k" : 40,
        "w" : 36,
        "n" : 1,
        "_rank" : 4,
        "h" : 48
      },
      "y.91" : {
        "k" : 160,
        "w" : 18,
        "n" : 1,
        "_rank" : 4,
        "h" : 24
      },
      "9265_0" : {
        "k" : 80,
        "w" : 18,
        "n" : 1,
        "_rank" : 4,
        "h" : 24
      },
      "s2.57" : {
        "k" : 40,
        "w" : 36,
        "n" : 1,
        "_rank" : 4,
        "h" : 48
      },
      "input.2309" : {
        "k" : 40,
        "w" : 18,
        "n" : 1,
        "_rank" : 4,
        "h" : 24
      },
      "3884" : {
        "k" : 40,
        "w" : 18,
        "n" : 1,
        "_rank" : 4,
        "h" : 24
      },
      "2848" : {
        "k" : 40,
        "w" : 72,
        "n" : 1,
        "_rank" : 4,
        "h" : 96
      },
      "4353" : {
        "k" : 40,
        "w" : 72,
        "n" : 1,
        "_rank" : 4,
        "h" : 96
      },
      "input.2267" : {
        "k" : 40,
        "w" : 36,
        "n" : 1,
        "_rank" : 4,
        "h" : 48
      },
      "y.121" : {
        "k" : 80,
        "w" : 36,
        "n" : 1,
        "_rank" : 4,
        "h" : 48
      },
      "out.79" : {
        "k" : 20,
        "w" : 1,
        "n" : 1,
        "_rank" : 4,
        "h" : 1
      },
      "input.999" : {
        "k" : 80,
        "w" : 18,
        "n" : 1,
        "_rank" : 4,
        "h" : 24
      },
      "2849" : {
        "k" : 40,
        "w" : 72,
        "n" : 1,
        "_rank" : 4,
        "h" : 96
      },
      "7735_0" : {
        "k" : 40,
        "w" : 36,
        "n" : 1,
        "_rank" : 4,
        "h" : 48
      },
      "4354" : {
        "k" : 40,
        "w" : 72,
        "n" : 1,
        "_rank" : 4,
        "h" : 96
      },
      "s.173" : {
        "k" : 80,
        "w" : 36,
        "n" : 1,
        "_rank" : 4,
        "h" : 48
      },
      "y.93" : {
        "k" : 160,
        "w" : 18,
        "n" : 1,
        "_rank" : 4,
        "h" : 24
      },
      "out.149" : {
        "k" : 80,
        "w" : 1,
        "n" : 1,
        "_rank" : 4,
        "h" : 1
      },
      "input.2945" : {
        "k" : 40,
        "w" : 36,
        "n" : 1,
        "_rank" : 4,
        "h" : 48
      },
      "input.1635" : {
        "k" : 80,
        "w" : 18,
        "n" : 1,
        "_rank" : 4,
        "h" : 24
      },
      "2831" : {
        "k" : 40,
        "w" : 72,
        "n" : 1,
        "_rank" : 4,
        "h" : 96
      },
      "11061" : {
        "k" : 160,
        "w" : 18,
        "n" : 1,
        "_rank" : 4,
        "h" : 24
      },
      "input.1593" : {
        "k" : 40,
        "w" : 18,
        "n" : 1,
        "_rank" : 4,
        "h" : 24
      },
      "input.2167" : {
        "k" : 80,
        "w" : 1,
        "n" : 1,
        "_rank" : 4,
        "h" : 1
      },
      "8586" : {
        "k" : 160,
        "w" : 18,
        "n" : 1,
        "_rank" : 4,
        "h" : 24
      },
      "input.2527" : {
        "k" : 40,
        "w" : 36,
        "n" : 1,
        "_rank" : 4,
        "h" : 48
      },
      "2832" : {
        "k" : 40,
        "w" : 72,
        "n" : 1,
        "_rank" : 4,
        "h" : 96
      },
      "9265_1" : {
        "k" : 80,
        "w" : 18,
        "n" : 1,
        "_rank" : 4,
        "h" : 24
      },
      "y.95" : {
        "k" : 160,
        "w" : 18,
        "n" : 1,
        "_rank" : 4,
        "h" : 24
      },
      "input.531" : {
        "k" : 80,
        "w" : 1,
        "n" : 1,
        "_rank" : 4,
        "h" : 1
      },
      "s2.59" : {
        "k" : 80,
        "w" : 18,
        "n" : 1,
        "_rank" : 4,
        "h" : 24
      },
      "input.2485" : {
        "k" : 80,
        "w" : 18,
        "n" : 1,
        "_rank" : 4,
        "h" : 24
      },
      "input.451" : {
        "k" : 40,
        "w" : 1,
        "n" : 1,
        "_rank" : 4,
        "h" : 1
      },
      "8587" : {
        "k" : 160,
        "w" : 18,
        "n" : 1,
        "_rank" : 4,
        "h" : 24
      },
      "input.371" : {
        "k" : 40,
        "w" : 1,
        "n" : 1,
        "_rank" : 4,
        "h" : 1
      },
      "11062" : {
        "k" : 160,
        "w" : 18,
        "n" : 1,
        "_rank" : 4,
        "h" : 24
      },
      "out.119" : {
        "k" : 80,
        "w" : 1,
        "n" : 1,
        "_rank" : 4,
        "h" : 1
      },
      "9857" : {
        "k" : 160,
        "w" : 18,
        "n" : 1,
        "_rank" : 4,
        "h" : 24
      },
      "input.2109" : {
        "k" : 37,
        "w" : 9,
        "n" : 1,
        "_rank" : 4,
        "h" : 12
      },
      "y.123" : {
        "k" : 80,
        "w" : 36,
        "n" : 1,
        "_rank" : 4,
        "h" : 48
      },
      "7735_1" : {
        "k" : 40,
        "w" : 36,
        "n" : 1,
        "_rank" : 4,
        "h" : 48
      },
      "s.175" : {
        "k" : 160,
        "w" : 18,
        "n" : 1,
        "_rank" : 4,
        "h" : 24
      },
      "input.2067" : {
        "k" : 40,
        "w" : 36,
        "n" : 1,
        "_rank" : 4,
        "h" : 48
      },
      "y.97" : {
        "k" : 40,
        "w" : 72,
        "n" : 1,
        "_rank" : 4,
        "h" : 96
      },
      "9858" : {
        "k" : 160,
        "w" : 18,
        "n" : 1,
        "_rank" : 4,
        "h" : 24
      },
      "input.505" : {
        "k" : 20,
        "w" : 1,
        "n" : 1,
        "_rank" : 4,
        "h" : 1
      },
      "8803" : {
        "k" : 320,
        "w" : 9,
        "n" : 1,
        "_rank" : 4,
        "h" : 12
      },
      "input.345" : {
        "k" : 20,
        "w" : 72,
        "n" : 1,
        "_rank" : 4,
        "h" : 96
      },
      "input.2385" : {
        "k" : 20,
        "w" : 1,
        "n" : 1,
        "_rank" : 4,
        "h" : 1
      },
      "input.265" : {
        "k" : 40,
        "w" : 72,
        "n" : 1,
        "_rank" : 4,
        "h" : 96
      },
      "input.2745" : {
        "k" : 40,
        "w" : 1,
        "n" : 1,
        "_rank" : 4,
        "h" : 1
      },
      "y.211" : {
        "k" : 80,
        "w" : 36,
        "n" : 1,
        "_rank" : 4,
        "h" : 48
      },
      "input.185" : {
        "k" : 20,
        "w" : 72,
        "n" : 1,
        "_rank" : 4,
        "h" : 96
      },
      "input.1435" : {
        "k" : 80,
        "w" : 18,
        "n" : 1,
        "_rank" : 4,
        "h" : 24
      },
      "8971" : {
        "k" : 40,
        "w" : 9,
        "n" : 1,
        "_rank" : 4,
        "h" : 12
      },
      "8804" : {
        "k" : 320,
        "w" : 9,
        "n" : 1,
        "_rank" : 4,
        "h" : 12
      },
      "input.973" : {
        "k" : 40,
        "w" : 36,
        "n" : 1,
        "_rank" : 4,
        "h" : 48
      },
      "input.2009" : {
        "k" : 160,
        "w" : 9,
        "n" : 1,
        "_rank" : 4,
        "h" : 12
      },
      "input.1393" : {
        "k" : 40,
        "w" : 18,
        "n" : 1,
        "_rank" : 4,
        "h" : 24
      },
      "y.99" : {
        "k" : 40,
        "w" : 72,
        "n" : 1,
        "_rank" : 4,
        "h" : 96
      },
      "9841" : {
        "k" : 160,
        "w" : 18,
        "n" : 1,
        "_rank" : 4,
        "h" : 24
      },
      "input.319" : {
        "k" : 40,
        "w" : 1,
        "n" : 1,
        "_rank" : 4,
        "h" : 1
      },
      "input.239" : {
        "k" : 20,
        "w" : 72,
        "n" : 1,
        "_rank" : 4,
        "h" : 96
      },
      "11064" : {
        "k" : 160,
        "w" : 18,
        "n" : 1,
        "_rank" : 4,
        "h" : 24
      },
      "y.125" : {
        "k" : 80,
        "w" : 36,
        "n" : 1,
        "_rank" : 4,
        "h" : 48
      },
      "y.81" : {
        "k" : 40,
        "w" : 72,
        "n" : 1,
        "_rank" : 4,
        "h" : 96
      },
      "input.2645" : {
        "k" : 80,
        "w" : 18,
        "n" : 1,
        "_rank" : 4,
        "h" : 24
      },
      "8973" : {
        "k" : 80,
        "w" : 9,
        "n" : 1,
        "_rank" : 4,
        "h" : 12
      },
      "input.867" : {
        "k" : 80,
        "w" : 1,
        "n" : 1,
        "_rank" : 4,
        "h" : 1
      },
      "s.177" : {
        "k" : 320,
        "w" : 9,
        "n" : 1,
        "_rank" : 4,
        "h" : 12
      },
      "y.213" : {
        "k" : 80,
        "w" : 36,
        "n" : 1,
        "_rank" : 4,
        "h" : 48
      },
      "y.83" : {
        "k" : 40,
        "w" : 72,
        "n" : 1,
        "_rank" : 4,
        "h" : 96
      },
      "input.2185" : {
        "k" : 160,
        "w" : 18,
        "n" : 1,
        "_rank" : 4,
        "h" : 24
      },
      "input.2545" : {
        "k" : 80,
        "w" : 36,
        "n" : 1,
        "_rank" : 4,
        "h" : 48
      },
      "input.1235" : {
        "k" : 80,
        "w" : 18,
        "n" : 1,
        "_rank" : 4,
        "h" : 24
      },
      "input.1193" : {
        "k" : 40,
        "w" : 18,
        "n" : 1,
        "_rank" : 4,
        "h" : 24
      },
      "3871_0" : {
        "k" : 20,
        "w" : 72,
        "n" : 1,
        "_rank" : 4,
        "h" : 96
      },
      "5395_0" : {
        "k" : 40,
        "w" : 36,
        "n" : 1,
        "_rank" : 4,
        "h" : 48
      },
      "input.1913" : {
        "k" : 40,
        "w" : 36,
        "n" : 1,
        "_rank" : 4,
        "h" : 48
      },
      "y.1" : {
        "k" : 40,
        "w" : 72,
        "n" : 1,
        "_rank" : 4,
        "h" : 96
      },
      "input.2127" : {
        "k" : 40,
        "w" : 36,
        "n" : 1,
        "_rank" : 4,
        "h" : 48
      },
      "y.127" : {
        "k" : 160,
        "w" : 18,
        "n" : 1,
        "_rank" : 4,
        "h" : 24
      },
      "y.85" : {
        "k" : 80,
        "w" : 36,
        "n" : 1,
        "_rank" : 4,
        "h" : 48
      },
      "input.2085" : {
        "k" : 80,
        "w" : 1,
        "n" : 1,
        "_rank" : 4,
        "h" : 1
      },
      "8960_0" : {
        "k" : 80,
        "w" : 18,
        "n" : 1,
        "_rank" : 4,
        "h" : 24
      },
      "y.3" : {
        "k" : 40,
        "w" : 72,
        "n" : 1,
        "_rank" : 4,
        "h" : 96
      },
      "6653" : {
        "k" : 40,
        "w" : 72,
        "n" : 1,
        "_rank" : 4,
        "h" : 96
      },
      "input.133" : {
        "k" : 20,
        "w" : 1,
        "n" : 1,
        "_rank" : 4,
        "h" : 1
      },
      "y.215" : {
        "k" : 80,
        "w" : 36,
        "n" : 1,
        "_rank" : 4,
        "h" : 48
      },
      "10488_0" : {
        "k" : 80,
        "w" : 18,
        "n" : 1,
        "_rank" : 4,
        "h" : 24
      },
      "y.5" : {
        "k" : 80,
        "w" : 36,
        "n" : 1,
        "_rank" : 4,
        "h" : 48
      },
      "input.921" : {
        "k" : 40,
        "w" : 1,
        "n" : 1,
        "_rank" : 4,
        "h" : 1
      },
      "6654" : {
        "k" : 40,
        "w" : 72,
        "n" : 1,
        "_rank" : 4,
        "h" : 96
      },
      "input.841" : {
        "k" : 20,
        "w" : 1,
        "n" : 1,
        "_rank" : 4,
        "h" : 1
      },
      "input.2027" : {
        "k" : 37,
        "w" : 9,
        "n" : 1,
        "_rank" : 4,
        "h" : 12
      },
      "637" : {
        "k" : 80,
        "w" : 36,
        "n" : 1,
        "_rank" : 4,
        "h" : 48
      },
      "input.761" : {
        "k" : 80,
        "w" : 18,
        "n" : 1,
        "_rank" : 4,
        "h" : 24
      },
      "y.87" : {
        "k" : 80,
        "w" : 36,
        "n" : 1,
        "_rank" : 4,
        "h" : 48
      },
      "y.7" : {
        "k" : 80,
        "w" : 36,
        "n" : 1,
        "_rank" : 4,
        "h" : 48
      },
      "input.2705" : {
        "k" : 160,
        "w" : 9,
        "n" : 1,
        "_rank" : 4,
        "h" : 12
      },
      "3871_1" : {
        "k" : 20,
        "w" : 72,
        "n" : 1,
        "_rank" : 4,
        "h" : 96
      },
      "input.107" : {
        "k" : 7,
        "w" : 36,
        "n" : 1,
        "_rank" : 4,
        "h" : 48
      },
      "5395_1" : {
        "k" : 40,
        "w" : 36,
        "n" : 1,
        "_rank" : 4,
        "h" : 48
      },
      "639" : {
        "k" : 80,
        "w" : 36,
        "n" : 1,
        "_rank" : 4,
        "h" : 48
      },
      "input.1035" : {
        "k" : 80,
        "w" : 18,
        "n" : 1,
        "_rank" : 4,
        "h" : 24
      },
      "y.129" : {
        "k" : 160,
        "w" : 18,
        "n" : 1,
        "_rank" : 4,
        "h" : 24
      },
      "input.815" : {
        "k" : 17,
        "w" : 18,
        "n" : 1,
        "_rank" : 4,
        "h" : 24
      },
      "y.9" : {
        "k" : 40,
        "w" : 72,
        "n" : 1,
        "_rank" : 4,
        "h" : 96
      },
      "y.89" : {
        "k" : 80,
        "w" : 36,
        "n" : 1,
        "_rank" : 4,
        "h" : 48
      },
      "input.655" : {
        "k" : 10,
        "w" : 1,
        "n" : 1,
        "_rank" : 4,
        "h" : 1
      },
      "input.1713" : {
        "k" : 40,
        "w" : 36,
        "n" : 1,
        "_rank" : 4,
        "h" : 48
      },
      "8960_1" : {
        "k" : 80,
        "w" : 18,
        "n" : 1,
        "_rank" : 4,
        "h" : 24
      },
      "5633_0" : {
        "k" : 40,
        "w" : 36,
        "n" : 1,
        "_rank" : 4,
        "h" : 48
      },
      "7157_0" : {
        "k" : 80,
        "w" : 18,
        "n" : 1,
        "_rank" : 4,
        "h" : 24
      },
      "input.495" : {
        "k" : 40,
        "w" : 36,
        "n" : 1,
        "_rank" : 4,
        "h" : 48
      },
      "input.2981" : {
        "k" : 80,
        "w" : 9,
        "n" : 1,
        "_rank" : 4,
        "h" : 12
      },
      "y.71" : {
        "k" : 80,
        "w" : 36,
        "n" : 1,
        "_rank" : 4,
        "h" : 48
      },
      "input.2245" : {
        "k" : 40,
        "w" : 36,
        "n" : 1,
        "_rank" : 4,
        "h" : 48
      },
      "y.217" : {
        "k" : 160,
        "w" : 18,
        "n" : 1,
        "_rank" : 4,
        "h" : 24
      },
      "input.709" : {
        "k" : 5,
        "w" : 1,
        "n" : 1,
        "_rank" : 4,
        "h" : 1
      },
      "input.549" : {
        "k" : 40,
        "w" : 36,
        "n" : 1,
        "_rank" : 4,
        "h" : 48
      },
      "y.73" : {
        "k" : 160,
        "w" : 18,
        "n" : 1,
        "_rank" : 4,
        "h" : 24
      },
      "input.2881" : {
        "k" : 40,
        "w" : 36,
        "n" : 1,
        "_rank" : 4,
        "h" : 48
      },
      "input.1931" : {
        "k" : 80,
        "w" : 1,
        "n" : 1,
        "_rank" : 4,
        "h" : 1
      },
      "input.2145" : {
        "k" : 5,
        "w" : 1,
        "n" : 1,
        "_rank" : 4,
        "h" : 1
      },
      "input.2505" : {
        "k" : 80,
        "w" : 36,
        "n" : 1,
        "_rank" : 4,
        "h" : 48
      },
      "3066" : {
        "k" : 160,
        "w" : 18,
        "n" : 1,
        "_rank" : 4,
        "h" : 24
      },
      "5633_1" : {
        "k" : 40,
        "w" : 36,
        "n" : 1,
        "_rank" : 4,
        "h" : 48
      },
      "7157_1" : {
        "k" : 80,
        "w" : 18,
        "n" : 1,
        "_rank" : 4,
        "h" : 24
      },
      "input.2823" : {
        "k" : 160,
        "w" : 1,
        "n" : 1,
        "_rank" : 4,
        "h" : 1
      },
      "input.1513" : {
        "k" : 40,
        "w" : 36,
        "n" : 1,
        "_rank" : 4,
        "h" : 48
      },
      "s2.41" : {
        "k" : 80,
        "w" : 18,
        "n" : 1,
        "_rank" : 4,
        "h" : 24
      },
      "y.75" : {
        "k" : 160,
        "w" : 18,
        "n" : 1,
        "_rank" : 4,
        "h" : 24
      },
      "2598" : {
        "k" : 20,
        "w" : 18,
        "n" : 1,
        "_rank" : 4,
        "h" : 24
      },
      "y.219" : {
        "k" : 160,
        "w" : 18,
        "n" : 1,
        "_rank" : 4,
        "h" : 24
      },
      "3067" : {
        "k" : 160,
        "w" : 18,
        "n" : 1,
        "_rank" : 4,
        "h" : 24
      },
      "10488_1" : {
        "k" : 80,
        "w" : 18,
        "n" : 1,
        "_rank" : 4,
        "h" : 24
      },
      "input.1831" : {
        "k" : 40,
        "w" : 36,
        "n" : 1,
        "_rank" : 4,
        "h" : 48
      },
      "input.2045" : {
        "k" : 40,
        "w" : 36,
        "n" : 1,
        "_rank" : 4,
        "h" : 48
      },
      "input.2405" : {
        "k" : 80,
        "w" : 1,
        "n" : 1,
        "_rank" : 4,
        "h" : 1
      },
      "5207" : {
        "k" : 80,
        "w" : 36,
        "n" : 1,
        "_rank" : 4,
        "h" : 48
      },
      "875_0" : {
        "k" : 20,
        "w" : 36,
        "n" : 1,
        "_rank" : 4,
        "h" : 48
      },
      "y.77" : {
        "k" : 160,
        "w" : 18,
        "n" : 1,
        "_rank" : 4,
        "h" : 24
      },
      "9838" : {
        "k" : 160,
        "w" : 18,
        "n" : 1,
        "_rank" : 4,
        "h" : 24
      },
      "8969" : {
        "k" : 20,
        "w" : 9,
        "n" : 1,
        "_rank" : 4,
        "h" : 12
      },
      "3069" : {
        "k" : 160,
        "w" : 18,
        "n" : 1,
        "_rank" : 4,
        "h" : 24
      },
      "672" : {
        "k" : 20,
        "w" : 36,
        "n" : 1,
        "_rank" : 4,
        "h" : 48
      },
      "5208" : {
        "k" : 80,
        "w" : 36,
        "n" : 1,
        "_rank" : 4,
        "h" : 48
      },
      "input.603" : {
        "k" : 160,
        "w" : 18,
        "n" : 1,
        "_rank" : 4,
        "h" : 24
      },
      "1145" : {
        "k" : 20,
        "w" : 72,
        "n" : 1,
        "_rank" : 4,
        "h" : 96
      },
      "input.523" : {
        "k" : 80,
        "w" : 18,
        "n" : 1,
        "_rank" : 4,
        "h" : 24
      },
      "input.1731" : {
        "k" : 80,
        "w" : 1,
        "n" : 1,
        "_rank" : 4,
        "h" : 1
      },
      "9839" : {
        "k" : 160,
        "w" : 18,
        "n" : 1,
        "_rank" : 4,
        "h" : 24
      },
      "input.363" : {
        "k" : 40,
        "w" : 36,
        "n" : 1,
        "_rank" : 4,
        "h" : 48
      },
      "input.1989" : {
        "k" : 40,
        "w" : 36,
        "n" : 1,
        "_rank" : 4,
        "h" : 48
      },
      "875_1" : {
        "k" : 40,
        "w" : 36,
        "n" : 1,
        "_rank" : 4,
        "h" : 48
      },
      "input.283" : {
        "k" : 60,
        "w" : 36,
        "n" : 1,
        "_rank" : 4,
        "h" : 48
      },
      "s.91" : {
        "k" : 40,
        "w" : 72,
        "n" : 1,
        "_rank" : 4,
        "h" : 96
      },
      "s2.43" : {
        "k" : 20,
        "w" : 72,
        "n" : 1,
        "_rank" : 4,
        "h" : 96
      },
      "y.79" : {
        "k" : 40,
        "w" : 72,
        "n" : 1,
        "_rank" : 4,
        "h" : 96
      },
      "input.2263" : {
        "k" : 160,
        "w" : 18,
        "n" : 1,
        "_rank" : 4,
        "h" : 24
      },
      "input.1313" : {
        "k" : 40,
        "w" : 36,
        "n" : 1,
        "_rank" : 4,
        "h" : 48
      },
      "input.2581" : {
        "k" : 80,
        "w" : 18,
        "n" : 1,
        "_rank" : 4,
        "h" : 24
      },
      "s2.101" : {
        "k" : 80,
        "w" : 18,
        "n" : 1,
        "_rank" : 4,
        "h" : 24
      },
      "y.61" : {
        "k" : 40,
        "w" : 72,
        "n" : 1,
        "_rank" : 4,
        "h" : 96
      },
      "last_x.1" : {
        "k" : 160,
        "w" : 18,
        "n" : 1,
        "_rank" : 4,
        "h" : 24
      },
      "input.1631" : {
        "k" : 40,
        "w" : 36,
        "n" : 1,
        "_rank" : 4,
        "h" : 48
      },
      "input.257" : {
        "k" : 40,
        "w" : 1,
        "n" : 1,
        "_rank" : 4,
        "h" : 1
      },
      "11335" : {
        "k" : 320,
        "w" : 9,
        "n" : 1,
        "_rank" : 4,
        "h" : 12
      },
      "s.93" : {
        "k" : 80,
        "w" : 36,
        "n" : 1,
        "_rank" : 4,
        "h" : 48
      },
      "input.2523" : {
        "k" : 40,
        "w" : 72,
        "n" : 1,
        "_rank" : 4,
        "h" : 96
      },
      "9023" : {
        "k" : 80,
        "w" : 18,
        "n" : 1,
        "_rank" : 4,
        "h" : 24
      },
      "y.63" : {
        "k" : 40,
        "w" : 72,
        "n" : 1,
        "_rank" : 4,
        "h" : 96
      },
      "out.151" : {
        "k" : 160,
        "w" : 1,
        "n" : 1,
        "_rank" : 4,
        "h" : 1
      },
      "input.2481" : {
        "k" : 10,
        "w" : 1,
        "n" : 1,
        "_rank" : 4,
        "h" : 1
      },
      "input.2841" : {
        "k" : 40,
        "w" : 18,
        "n" : 1,
        "_rank" : 4,
        "h" : 24
      },
      "11336" : {
        "k" : 320,
        "w" : 9,
        "n" : 1,
        "_rank" : 4,
        "h" : 12
      },
      "input.1531" : {
        "k" : 80,
        "w" : 1,
        "n" : 1,
        "_rank" : 4,
        "h" : 1
      },
      "s.95" : {
        "k" : 160,
        "w" : 18,
        "n" : 1,
        "_rank" : 4,
        "h" : 24
      },
      "4154_0" : {
        "k" : 20,
        "w" : 18,
        "n" : 1,
        "_rank" : 4,
        "h" : 24
      },
      "input.939" : {
        "k" : 160,
        "w" : 18,
        "n" : 1,
        "_rank" : 4,
        "h" : 24
      },
      "11249" : {
        "k" : 320,
        "w" : 9,
        "n" : 1,
        "_rank" : 4,
        "h" : 12
      },
      "s2.45" : {
        "k" : 40,
        "w" : 36,
        "n" : 1,
        "_rank" : 4,
        "h" : 48
      },
      "input.859" : {
        "k" : 80,
        "w" : 18,
        "n" : 1,
        "_rank" : 4,
        "h" : 24
      },
      "input.1789" : {
        "k" : 40,
        "w" : 36,
        "n" : 1,
        "_rank" : 4,
        "h" : 48
      },
      "2401" : {
        "k" : 20,
        "w" : 72,
        "n" : 1,
        "_rank" : 4,
        "h" : 96
      },
      "input.699" : {
        "k" : 80,
        "w" : 18,
        "n" : 1,
        "_rank" : 4,
        "h" : 24
      },
      "input.2063" : {
        "k" : 5,
        "w" : 1,
        "n" : 1,
        "_rank" : 4,
        "h" : 1
      },
      "input.1113" : {
        "k" : 40,
        "w" : 36,
        "n" : 1,
        "_rank" : 4,
        "h" : 48
      },
      "y.65" : {
        "k" : 40,
        "w" : 72,
        "n" : 1,
        "_rank" : 4,
        "h" : 96
      },
      "out.31" : {
        "k" : 20,
        "w" : 1,
        "n" : 1,
        "_rank" : 4,
        "h" : 1
      },
      "input.2741" : {
        "k" : 160,
        "w" : 1,
        "n" : 1,
        "_rank" : 4,
        "h" : 1
      },
      "out.121" : {
        "k" : 20,
        "w" : 1,
        "n" : 1,
        "_rank" : 4,
        "h" : 1
      },
      "input.1431" : {
        "k" : 40,
        "w" : 36,
        "n" : 1,
        "_rank" : 4,
        "h" : 48
      },
      "401_0" : {
        "k" : 40,
        "w" : 36,
        "n" : 1,
        "_rank" : 4,
        "h" : 48
      },
      "input.2005" : {
        "k" : 160,
        "w" : 18,
        "n" : 1,
        "_rank" : 4,
        "h" : 24
      },
      "input.231" : {
        "k" : 20,
        "w" : 72,
        "n" : 1,
        "_rank" : 4,
        "h" : 96
      },
      "y.67" : {
        "k" : 80,
        "w" : 36,
        "n" : 1,
        "_rank" : 4,
        "h" : 48
      },
      "input.151" : {
        "k" : 40,
        "w" : 72,
        "n" : 1,
        "_rank" : 4,
        "h" : 96
      },
      "11338" : {
        "k" : 320,
        "w" : 9,
        "n" : 1,
        "_rank" : 4,
        "h" : 12
      },
      "4154_1" : {
        "k" : 40,
        "w" : 18,
        "n" : 1,
        "_rank" : 4,
        "h" : 24
      },
      "s2.47" : {
        "k" : 80,
        "w" : 18,
        "n" : 1,
        "_rank" : 4,
        "h" : 24
      },
      "s.99" : {
        "k" : 40,
        "w" : 72,
        "n" : 1,
        "_rank" : 4,
        "h" : 96
      },
      "4634_0" : {
        "k" : 40,
        "w" : 36,
        "n" : 1,
        "_rank" : 4,
        "h" : 48
      },
      "6158_0" : {
        "k" : 80,
        "w" : 18,
        "n" : 1,
        "_rank" : 4,
        "h" : 24
      },
      "401_1" : {
        "k" : 40,
        "w" : 36,
        "n" : 1,
        "_rank" : 4,
        "h" : 48
      },
      "9810" : {
        "k" : 160,
        "w" : 18,
        "n" : 1,
        "_rank" : 4,
        "h" : 24
      },
      "input.1331" : {
        "k" : 80,
        "w" : 1,
        "n" : 1,
        "_rank" : 4,
        "h" : 1
      },
      "y.111" : {
        "k" : 160,
        "w" : 18,
        "n" : 1,
        "_rank" : 4,
        "h" : 24
      },
      "s2.103" : {
        "k" : 20,
        "w" : 72,
        "n" : 1,
        "_rank" : 4,
        "h" : 96
      },
      "input.1589" : {
        "k" : 40,
        "w" : 36,
        "n" : 1,
        "_rank" : 4,
        "h" : 48
      },
      "y.191" : {
        "k" : 160,
        "w" : 18,
        "n" : 1,
        "_rank" : 4,
        "h" : 24
      },
      "input.1949" : {
        "k" : 40,
        "w" : 36,
        "n" : 1,
        "_rank" : 4,
        "h" : 48
      },
      "input.205" : {
        "k" : 40,
        "w" : 1,
        "n" : 1,
        "_rank" : 4,
        "h" : 1
      },
      "s.163" : {
        "k" : 40,
        "w" : 72,
        "n" : 1,
        "_rank" : 4,
        "h" : 96
      },
      "6636" : {
        "k" : 40,
        "w" : 72,
        "n" : 1,
        "_rank" : 4,
        "h" : 96
      },
      "input.125" : {
        "k" : 20,
        "w" : 72,
        "n" : 1,
        "_rank" : 4,
        "h" : 96
      },
      "y.69" : {
        "k" : 80,
        "w" : 36,
        "n" : 1,
        "_rank" : 4,
        "h" : 48
      },
      "2406" : {
        "k" : 40,
        "w" : 36,
        "n" : 1,
        "_rank" : 4,
        "h" : 48
      },
      "input.2223" : {
        "k" : 40,
        "w" : 36,
        "n" : 1,
        "_rank" : 4,
        "h" : 48
      },
      "input.913" : {
        "k" : 40,
        "w" : 36,
        "n" : 1,
        "_rank" : 4,
        "h" : 48
      },
      "1137" : {
        "k" : 60,
        "w" : 36,
        "n" : 1,
        "_rank" : 4,
        "h" : 48
      },
      "6637" : {
        "k" : 40,
        "w" : 72,
        "n" : 1,
        "_rank" : 4,
        "h" : 96
      },
      "y.51" : {
        "k" : 80,
        "w" : 36,
        "n" : 1,
        "_rank" : 4,
        "h" : 48
      },
      "input.673" : {
        "k" : 140,
        "w" : 18,
        "n" : 1,
        "_rank" : 4,
        "h" : 24
      },
      "input.593" : {
        "k" : 40,
        "w" : 18,
        "n" : 1,
        "_rank" : 4,
        "h" : 24
      },
      "input.1231" : {
        "k" : 40,
        "w" : 36,
        "n" : 1,
        "_rank" : 4,
        "h" : 48
      },
      "input.2901" : {
        "k" : 40,
        "w" : 18,
        "n" : 1,
        "_rank" : 4,
        "h" : 24
      },
      "s.83" : {
        "k" : 40,
        "w" : 72,
        "n" : 1,
        "_rank" : 4,
        "h" : 96
      },
      "input.2799" : {
        "k" : 20,
        "w" : 1,
        "n" : 1,
        "_rank" : 4,
        "h" : 1
      },
      "input.1849" : {
        "k" : 40,
        "w" : 36,
        "n" : 1,
        "_rank" : 4,
        "h" : 48
      },
      "4154_2" : {
        "k" : 80,
        "w" : 18,
        "n" : 1,
        "_rank" : 4,
        "h" : 24
      },
      "s2.49" : {
        "k" : 20,
        "w" : 72,
        "n" : 1,
        "_rank" : 4,
        "h" : 96
      },
      "4881" : {
        "k" : 20,
        "w" : 18,
        "n" : 1,
        "_rank" : 4,
        "h" : 24
      },
      "4634_1" : {
        "k" : 40,
        "w" : 36,
        "n" : 1,
        "_rank" : 4,
        "h" : 48
      },
      "6158_1" : {
        "k" : 80,
        "w" : 18,
        "n" : 1,
        "_rank" : 4,
        "h" : 24
      },
      "5350" : {
        "k" : 160,
        "w" : 18,
        "n" : 1,
        "_rank" : 4,
        "h" : 24
      },
      "input.2123" : {
        "k" : 20,
        "w" : 72,
        "n" : 1,
        "_rank" : 4,
        "h" : 96
      },
      "input.647" : {
        "k" : 20,
        "w" : 1,
        "n" : 1,
        "_rank" : 4,
        "h" : 1
      },
      "9013" : {
        "k" : 20,
        "w" : 72,
        "n" : 1,
        "_rank" : 4,
        "h" : 96
      },
      "y.53" : {
        "k" : 80,
        "w" : 36,
        "n" : 1,
        "_rank" : 4,
        "h" : 48
      },
      "input.567" : {
        "k" : 40,
        "w" : 36,
        "n" : 1,
        "_rank" : 4,
        "h" : 48
      },
      "y.113" : {
        "k" : 160,
        "w" : 18,
        "n" : 1,
        "_rank" : 4,
        "h" : 24
      },
      "y.193" : {
        "k" : 320,
        "w" : 9,
        "n" : 1,
        "_rank" : 4,
        "h" : 12
      },
      "s.85" : {
        "k" : 80,
        "w" : 36,
        "n" : 1,
        "_rank" : 4,
        "h" : 48
      },
      "input.1131" : {
        "k" : 80,
        "w" : 1,
        "n" : 1,
        "_rank" : 4,
        "h" : 1
      },
      "input.2801" : {
        "k" : 40,
        "w" : 36,
        "n" : 1,
        "_rank" : 4,
        "h" : 48
      },
      "out.33" : {
        "k" : 40,
        "w" : 1,
        "n" : 1,
        "_rank" : 4,
        "h" : 1
      },
      "s.165" : {
        "k" : 80,
        "w" : 36,
        "n" : 1,
        "_rank" : 4,
        "h" : 48
      },
      "input.3015" : {
        "k" : 80,
        "w" : 18,
        "n" : 1,
        "_rank" : 4,
        "h" : 24
      },
      "8087_0" : {
        "k" : 20,
        "w" : 9,
        "n" : 1,
        "_rank" : 4,
        "h" : 12
      },
      "input.1389" : {
        "k" : 40,
        "w" : 36,
        "n" : 1,
        "_rank" : 4,
        "h" : 48
      },
      "input.1749" : {
        "k" : 40,
        "w" : 36,
        "n" : 1,
        "_rank" : 4,
        "h" : 48
      },
      "4883" : {
        "k" : 40,
        "w" : 18,
        "n" : 1,
        "_rank" : 4,
        "h" : 24
      },
      "5352" : {
        "k" : 160,
        "w" : 18,
        "n" : 1,
        "_rank" : 4,
        "h" : 24
      },
      "y.201" : {
        "k" : 40,
        "w" : 72,
        "n" : 1,
        "_rank" : 4,
        "h" : 96
      },
      "y.55" : {
        "k" : 160,
        "w" : 18,
        "n" : 1,
        "_rank" : 4,
        "h" : 24
      },
      "s.87" : {
        "k" : 160,
        "w" : 18,
        "n" : 1,
        "_rank" : 4,
        "h" : 24
      },
      "input.1031" : {
        "k" : 40,
        "w" : 36,
        "n" : 1,
        "_rank" : 4,
        "h" : 48
      },
      "input.2701" : {
        "k" : 80,
        "w" : 18,
        "n" : 1,
        "_rank" : 4,
        "h" : 24
      },
      "input.35" : {
        "k" : 32,
        "w" : 72,
        "n" : 1,
        "_rank" : 4,
        "h" : 96
      },
      "input.2599" : {
        "k" : 40,
        "w" : 36,
        "n" : 1,
        "_rank" : 4,
        "h" : 48
      },
      "input.1649" : {
        "k" : 40,
        "w" : 36,
        "n" : 1,
        "_rank" : 4,
        "h" : 48
      },
      "3830" : {
        "k" : 160,
        "w" : 18,
        "n" : 1,
        "_rank" : 4,
        "h" : 24
      },
      "y.57" : {
        "k" : 160,
        "w" : 18,
        "n" : 1,
        "_rank" : 4,
        "h" : 24
      },
      "s2.105" : {
        "k" : 40,
        "w" : 36,
        "n" : 1,
        "_rank" : 4,
        "h" : 48
      },
      "y.115" : {
        "k" : 40,
        "w" : 72,
        "n" : 1,
        "_rank" : 4,
        "h" : 96
      },
      "y.195" : {
        "k" : 320,
        "w" : 9,
        "n" : 1,
        "_rank" : 4,
        "h" : 12
      },
      "input.1967" : {
        "k" : 40,
        "w" : 36,
        "n" : 1,
        "_rank" : 4,
        "h" : 48
      },
      "s.167" : {
        "k" : 320,
        "w" : 9,
        "n" : 1,
        "_rank" : 4,
        "h" : 12
      },
      "8087_1" : {
        "k" : 40,
        "w" : 9,
        "n" : 1,
        "_rank" : 4,
        "h" : 12
      },
      "9018" : {
        "k" : 40,
        "w" : 36,
        "n" : 1,
        "_rank" : 4,
        "h" : 48
      },
      "9586" : {
        "k" : 40,
        "w" : 72,
        "n" : 1,
        "_rank" : 4,
        "h" : 96
      },
      "s.71" : {
        "k" : 160,
        "w" : 18,
        "n" : 1,
        "_rank" : 4,
        "h" : 24
      },
      "input.1189" : {
        "k" : 40,
        "w" : 36,
        "n" : 1,
        "_rank" : 4,
        "h" : 48
      },
      "y.203" : {
        "k" : 40,
        "w" : 72,
        "n" : 1,
        "_rank" : 4,
        "h" : 96
      },
      "input.1549" : {
        "k" : 40,
        "w" : 36,
        "n" : 1,
        "_rank" : 4,
        "h" : 48
      },
      "input.461" : {
        "k" : 80,
        "w" : 1,
        "n" : 1,
        "_rank" : 4,
        "h" : 1
      },
      "y.59" : {
        "k" : 160,
        "w" : 18,
        "n" : 1,
        "_rank" : 4,
        "h" : 24
      },
      "input.1909" : {
        "k" : 5,
        "w" : 1,
        "n" : 1,
        "_rank" : 4,
        "h" : 1
      },
      "out.153" : {
        "k" : 20,
        "w" : 1,
        "n" : 1,
        "_rank" : 4,
        "h" : 1
      },
      "9587" : {
        "k" : 40,
        "w" : 72,
        "n" : 1,
        "_rank" : 4,
        "h" : 96
      },
      "2163" : {
        "k" : 80,
        "w" : 36,
        "n" : 1,
        "_rank" : 4,
        "h" : 48
      },
      "input.1867" : {
        "k" : 80,
        "w" : 1,
        "n" : 1,
        "_rank" : 4,
        "h" : 1
      },
      "input.85" : {
        "k" : 5,
        "w" : 1,
        "n" : 1,
        "_rank" : 4,
        "h" : 1
      },
      "y.41" : {
        "k" : 160,
        "w" : 18,
        "n" : 1,
        "_rank" : 4,
        "h" : 24
      },
      "1139_0" : {
        "k" : 20,
        "w" : 36,
        "n" : 1,
        "_rank" : 4,
        "h" : 48
      },
      "input.2141" : {
        "k" : 20,
        "w" : 1,
        "n" : 1,
        "_rank" : 4,
        "h" : 1
      },
      "input.2501" : {
        "k" : 40,
        "w" : 1,
        "n" : 1,
        "_rank" : 4,
        "h" : 1
      },
      "out.1" : {
        "k" : 20,
        "w" : 1,
        "n" : 1,
        "_rank" : 4,
        "h" : 1
      },
      "input.515" : {
        "k" : 40,
        "w" : 1,
        "n" : 1,
        "_rank" : 4,
        "h" : 1
      },
      "2164" : {
        "k" : 80,
        "w" : 36,
        "n" : 1,
        "_rank" : 4,
        "h" : 48
      },
      "input.435" : {
        "k" : 80,
        "w" : 18,
        "n" : 1,
        "_rank" : 4,
        "h" : 24
      },
      "input.2399" : {
        "k" : 10,
        "w" : 1,
        "n" : 1,
        "_rank" : 4,
        "h" : 1
      },
      "3155_0" : {
        "k" : 20,
        "w" : 18,
        "n" : 1,
        "_rank" : 4,
        "h" : 24
      },
      "y.117" : {
        "k" : 40,
        "w" : 72,
        "n" : 1,
        "_rank" : 4,
        "h" : 96
      },
      "input.355" : {
        "k" : 20,
        "w" : 1,
        "n" : 1,
        "_rank" : 4,
        "h" : 1
      },
      "580" : {
        "k" : 40,
        "w" : 72,
        "n" : 1,
        "_rank" : 4,
        "h" : 96
      },
      "y.197" : {
        "k" : 320,
        "w" : 9,
        "n" : 1,
        "_rank" : 4,
        "h" : 12
      },
      "input.1449" : {
        "k" : 40,
        "w" : 36,
        "n" : 1,
        "_rank" : 4,
        "h" : 48
      },
      "input.1809" : {
        "k" : 140,
        "w" : 18,
        "n" : 1,
        "_rank" : 4,
        "h" : 24
      },
      "out.35" : {
        "k" : 80,
        "w" : 1,
        "n" : 1,
        "_rank" : 4,
        "h" : 1
      },
      "input.195" : {
        "k" : 20,
        "w" : 1,
        "n" : 1,
        "_rank" : 4,
        "h" : 1
      },
      "9570" : {
        "k" : 40,
        "w" : 72,
        "n" : 1,
        "_rank" : 4,
        "h" : 96
      },
      "input.3033" : {
        "k" : 40,
        "w" : 72,
        "n" : 1,
        "_rank" : 4,
        "h" : 96
      },
      "8087_2" : {
        "k" : 80,
        "w" : 9,
        "n" : 1,
        "_rank" : 4,
        "h" : 12
      },
      "input.983" : {
        "k" : 40,
        "w" : 36,
        "n" : 1,
        "_rank" : 4,
        "h" : 48
      },
      "input.19" : {
        "k" : 32,
        "w" : 72,
        "n" : 1,
        "_rank" : 4,
        "h" : 96
      },
      "out.123" : {
        "k" : 40,
        "w" : 1,
        "n" : 1,
        "_rank" : 4,
        "h" : 1
      },
      "9003" : {
        "k" : 300,
        "w" : 9,
        "n" : 1,
        "_rank" : 4,
        "h" : 12
      },
      "input.1767" : {
        "k" : 40,
        "w" : 36,
        "n" : 1,
        "_rank" : 4,
        "h" : 48
      },
      "y.43" : {
        "k" : 40,
        "w" : 72,
        "n" : 1,
        "_rank" : 4,
        "h" : 96
      },
      "input.409" : {
        "k" : 140,
        "w" : 18,
        "n" : 1,
        "_rank" : 4,
        "h" : 24
      },
      "input.2041" : {
        "k" : 20,
        "w" : 72,
        "n" : 1,
        "_rank" : 4,
        "h" : 96
      },
      "y.205" : {
        "k" : 40,
        "w" : 72,
        "n" : 1,
        "_rank" : 4,
        "h" : 96
      },
      "input.329" : {
        "k" : 60,
        "w" : 36,
        "n" : 1,
        "_rank" : 4,
        "h" : 48
      },
      "input.2401" : {
        "k" : 40,
        "w" : 1,
        "n" : 1,
        "_rank" : 4,
        "h" : 1
      },
      "s.75" : {
        "k" : 40,
        "w" : 72,
        "n" : 1,
        "_rank" : 4,
        "h" : 96
      },
      "input.249" : {
        "k" : 40,
        "w" : 36,
        "n" : 1,
        "_rank" : 4,
        "h" : 48
      },
      "s2.131" : {
        "k" : 40,
        "w" : 36,
        "n" : 1,
        "_rank" : 4,
        "h" : 48
      },
      "input.2299" : {
        "k" : 40,
        "w" : 36,
        "n" : 1,
        "_rank" : 4,
        "h" : 48
      },
      "input.169" : {
        "k" : 60,
        "w" : 36,
        "n" : 1,
        "_rank" : 4,
        "h" : 48
      },
      "input.1349" : {
        "k" : 40,
        "w" : 36,
        "n" : 1,
        "_rank" : 4,
        "h" : 48
      },
      "6211" : {
        "k" : 40,
        "w" : 36,
        "n" : 1,
        "_rank" : 4,
        "h" : 48
      },
      "input.1709" : {
        "k" : 5,
        "w" : 1,
        "n" : 1,
        "_rank" : 4,
        "h" : 1
      },
      "1139_1" : {
        "k" : 40,
        "w" : 36,
        "n" : 1,
        "_rank" : 4,
        "h" : 48
      },
      "y.45" : {
        "k" : 40,
        "w" : 72,
        "n" : 1,
        "_rank" : 4,
        "h" : 96
      },
      "input.2977" : {
        "k" : 80,
        "w" : 18,
        "n" : 1,
        "_rank" : 4,
        "h" : 24
      },
      "input.1667" : {
        "k" : 80,
        "w" : 1,
        "n" : 1,
        "_rank" : 4,
        "h" : 1
      },
      "3037" : {
        "k" : 160,
        "w" : 18,
        "n" : 1,
        "_rank" : 4,
        "h" : 24
      },
      "out.3" : {
        "k" : 40,
        "w" : 1,
        "n" : 1,
        "_rank" : 4,
        "h" : 1
      },
      "s.77" : {
        "k" : 80,
        "w" : 36,
        "n" : 1,
        "_rank" : 4,
        "h" : 48
      },
      "3155_1" : {
        "k" : 40,
        "w" : 18,
        "n" : 1,
        "_rank" : 4,
        "h" : 24
      },
      "s2.107" : {
        "k" : 80,
        "w" : 18,
        "n" : 1,
        "_rank" : 4,
        "h" : 24
      },
      "y.119" : {
        "k" : 40,
        "w" : 72,
        "n" : 1,
        "_rank" : 4,
        "h" : 96
      },
      "10112" : {
        "k" : 320,
        "w" : 9,
        "n" : 1,
        "_rank" : 4,
        "h" : 12
      },
      "y.199" : {
        "k" : 320,
        "w" : 9,
        "n" : 1,
        "_rank" : 4,
        "h" : 12
      },
      "10192" : {
        "k" : 20,
        "w" : 9,
        "n" : 1,
        "_rank" : 4,
        "h" : 12
      },
      "1098_0" : {
        "k" : 20,
        "w" : 72,
        "n" : 1,
        "_rank" : 4,
        "h" : 96
      },
      "8042_0" : {
        "k" : 80,
        "w" : 18,
        "n" : 1,
        "_rank" : 4,
        "h" : 24
      },
      "3038" : {
        "k" : 160,
        "w" : 18,
        "n" : 1,
        "_rank" : 4,
        "h" : 24
      },
      "8087_3" : {
        "k" : 160,
        "w" : 9,
        "n" : 1,
        "_rank" : 4,
        "h" : 12
      },
      "input.2559" : {
        "k" : 40,
        "w" : 18,
        "n" : 1,
        "_rank" : 4,
        "h" : 24
      },
      "input.2919" : {
        "k" : 40,
        "w" : 36,
        "n" : 1,
        "_rank" : 4,
        "h" : 48
      },
      "input.1249" : {
        "k" : 40,
        "w" : 36,
        "n" : 1,
        "_rank" : 4,
        "h" : 48
      },
      "input.1609" : {
        "k" : 140,
        "w" : 18,
        "n" : 1,
        "_rank" : 4,
        "h" : 24
      },
      "1590_0" : {
        "k" : 40,
        "w" : 36,
        "n" : 1,
        "_rank" : 4,
        "h" : 48
      },
      "y.47" : {
        "k" : 40,
        "w" : 72,
        "n" : 1,
        "_rank" : 4,
        "h" : 96
      },
      "y.207" : {
        "k" : 40,
        "w" : 72,
        "n" : 1,
        "_rank" : 4,
        "h" : 96
      },
      "input.1567" : {
        "k" : 40,
        "w" : 36,
        "n" : 1,
        "_rank" : 4,
        "h" : 48
      },
      "s.79" : {
        "k" : 160,
        "w" : 18,
        "n" : 1,
        "_rank" : 4,
        "h" : 24
      },
      "10113" : {
        "k" : 320,
        "w" : 9,
        "n" : 1,
        "_rank" : 4,
        "h" : 12
      },
      "10026" : {
        "k" : 320,
        "w" : 9,
        "n" : 1,
        "_rank" : 4,
        "h" : 12
      },
      "9809" : {
        "k" : 160,
        "w" : 18,
        "n" : 1,
        "_rank" : 4,
        "h" : 24
      }
    },
    "global_shapes" : {

    }
  },
  "subnetworks" : {

  }
}